src/output/model.pth (torch, 938311 bytes, 17 tensors)

lstm1.weight_ih_l0 f4 [512, 11]
00000000: 354a 27bd 6631 b7bc 7a42 8fbd 5bc4 b33d
00000010: 2fde dcbd 881a d3bd 35b3 a03d 5b3a 1d3d
00000020: a007 bc3d 3e45 1a3d 5a29 a7bc a07d 06bb
00000030: 1092 823a c4c1 73bd 8223 8d3d 131a 7b3d
00000040: 1e46 cdbd 8528 d53d dc4b 853c 3936 e23d
00000050: 2e62 2dbd fa15 d7bd 6455 c3ba ca3e 0a3d
00000060: b1ab 4f3c 9d22 8f3d 1833 4cbd ef8e 52bd
00000070: 354a f4bc 29a5 d13d 660d 793d 9bef c6bd
00000080: 58fc fdbd 29ab 04be aab8 eebd 11c4 68bd
00000090: 1d20 c43d 74f4 a23c d33a d0bd 1390 32bd
000000a0: 8b4c c03d 941f 6abc e6ca 85bd 7275 3a3a
000000b0: b80a 953d f60b 313d f017 6f3d a6c7 ae3c
000000c0: e8fe db3d be19 82bc 6182 afbd e2e2 58bd
000000d0: 00b4 ccbd 477f 963d 7c70 3eba 5d47 f43b
000000e0: 9159 853a 903b 5a3b c59f babc 9482 bebb
000000f0: 6bec 8f3d 704a 80bc 195d 1dbd d84b 9ebd
00000100: ce3e d63d 0c3c d73d e25e a53d a727 bfbc
00000110: 7ff5 5ebc 3c41 e13c 0fae f6bc 8c49 9e3c
00000120: 0435 94bd 05eb 8abd b940 89bd a31c 913d
00000130: 9924 b8bb bd36 4e3b afc7 0f3d 549f e93d
00000140: bde6 bcbc 42d8 feba 9a0d 333d e3ab 1b3b
00000150: cd35 a7bd a4de b7bd 0a6e ba3d 74e4 0ebc
00000160: 379d c63b 4f2e 543c a153 ad3a 712e f5ba
00000170: ffec 603c 7d5a ec3c 24ea 6dbc b0f6 07bd
00000180: 6a6c d7bd 263e a5bc aadb 5cbd 952c 2a3d
00000190: d1f0 e5bd d377 4ebd 88aa edbb a755 7bbd
000001a0: 2ab6 afbd 0589 593c 9f18 0ebd 9b10 9c3d
000001b0: 274f 7ebc a49a 06bd fdf0 c13d dd7d d93d
000001c0: dbd5 a13d d5c1 a93c 9c7a 093e b980 e6bc
000001d0: 25f9 3c3c f4af 98bd e1bf 033d 584a 023e
000001e0: 2d82 81bb 2e38 6dbd 1777 ddbd bba0 fbbd
000001f0: bc14 56bb f51f b63c aef5 1abd 3de3 bd3d
00000200: e01e 333d e405 fc3d df2c b4bd da83 eabd
00000210: f7f0 6a3c ea73 d33d 6352 2a3d ad39 21bd
00000220: 8f4a f93c 8638 e73d 7c4e 68bc cb34 97bd
00000230: cc96 abbd 68ac ba3d 550a 513d 6969 43bc
00000240: 4ac2 f9ba c885 b03c 0c10 b3bb 27b5 0c3e
00000250: 4d22 103e 70c2 f8bd 095b 02bd 88ba 09be
00000260: a24a 0e3e 24c8 413c b416 9bbb ad06 fd3d
00000270: 8777 873b 3f99 11bd 3f65 bc3d bfd8 dc3c
00000280: 819c 0b3d 8407 013d a759 07be f69b 463d
00000290: 43ec 853c f5c5 eabc 2640 d4bd 5e2a 0fbd
000002a0: 36ea d63c c277 c7bd 1c89 65bc b53b a63d
000002b0: f9d1 933b 3ccb 603d acb7 b7bd 35d0 633d
000002c0: 217d d23d 7919 ac3d 36fb 8c3d b742 efbc
000002d0: f23e 81bc 7a36 273d 78f7 013d c841 9ebc
000002e0: 77b4 5b3d c17e c03d ca4f 1abd ec47 ffbc
000002f0: 5485 853d 4cfe 0c3e b36a 96bd e8e0 223b
00000300: b6df e03c 482b 0d3d 030d 6e3b f015 45ba
00000310: 2c44 9c3d 52dc 69bb 9d1f 5ebd f486 46bd
00000320: 37d0 51bc 5c8f 50bd 6477 863d 3443 e73c
00000330: 5cdd d73d ac49 c4bc 9a2f bb3d 068c 8c3c
00000340: 1440 b4bd 2782 753d 22c4 593d bf52 f23d
00000350: 98cb 92bd 39c3 cb3c 1840 ff3d afad 07be
00000360: 856d 98bd dcb9 edbd a2dd 273d 6eef 243d
00000370: 8bb1 443c 1025 283d 5154 ad3d e1bb 05bd
00000380: 6080 9b3d a15a 403d 7327 b93c 5602 e9bc
00000390: d4b3 43bc 9f3a d4bc 6d45 503c 3641 a53c
000003a0: 423c dcbc 5cc2 27bd 6fdb 3cbd 3b18 30bd
000003b0: ee67 60bd d59d ee3c 68e6 f9bb 5741 d33c
000003c0: c70f 9d3b 98e5 943c 8540 cd3b feff 933d
000003d0: 2d48 2e3c 92c6 b0bd bb37 c539 92a1 c73a
000003e0: 74f6 fabd f7f7 2fbd f36c fdbd ef93 403d
000003f0: 5838 13bd 3952 98bd 5ceb 1bbd 1619 073d
-0.040842254 -0.022362422 -0.06995101 0.08777686 -0.10784566 -0.10307795 0.07846681 0.03838573
0.09181142 0.03766369 -0.02040546 -0.0020521656 0.0009961743 -0.05951096 0.06891538 0.061304163
-0.100231394 0.10408119 0.016271524 0.110454984 -0.04232996 -0.105022386 -0.0014902768 0.033751287
0.012675212 0.06989024 -0.049853414 -0.051405843 -0.02982054 0.1023658 0.060803793 -0.0971367
-0.124016464 -0.12955917 -0.116563156 -0.05682761 0.095764376 0.019891955 -0.1016747 -0.04359443
0.093895994 -0.014289755 -0.065328404 0.00071128376 0.07277435 0.043224297 0.058372438 0.021335434
0.10741979 -0.015881415 -0.0856979 -0.052950747 -0.0999527 0.07348495 -0.0007264686 0.007454796
0.0010173788 0.0033299662 -0.022781262 -0.005813906 0.07027515 -0.015660495 -0.038418863 -0.0772931
0.10461198 0.105095 0.08074738 -0.023334337 -0.0136083355 0.027496926 -0.030112294 0.01932218
-0.072366744 -0.06783108 -0.06701798 0.0708554 -0.005619597 0.0031465732 0.035102542 0.114073426
-0.023059243 -0.0019443112 0.043714143 0.0023753576 -0.081645586 -0.08978012 0.091030195 -0.00872146
0.006061222 0.012950494 0.0013223776 -0.0018705857 0.013728379 0.028851742 -0.0145211555 -0.033194244
-0.10518725 -0.020171236 -0.053920425 0.041546423 -0.11227573 -0.050407242 -0.007252995 -0.06136098
-0.08579667 0.013277297 -0.03469145 0.07620355 -0.015521801 -0.03286232 0.09469793 0.1061971
0.07902118 0.02072231 0.13425678 -0.028137552 0.01153401 -0.074554354 0.03216541 0.12723672
-0.0039522857 -0.057914905 -0.1081373 -0.12286516 -0.0032666167 0.022232035 -0.037831955 0.09271858
0.043730617 0.12305811 -0.08797621 -0.1145093 0.014339677 0.10324843 0.041582476 -0.039361645
0.03043106 0.11290078 -0.014178868 -0.07383116 -0.083783716 0.09114915 0.051035244 -0.011926987
-0.0019055095 0.021548167 -0.0054645594 0.13740979 0.14075585 -0.12146461 -0.0318251 -0.13450062
0.13895658 0.011827502 -0.004732931 0.12354789 0.004134122 -0.035546537 0.09198999 0.026958821
0.0340848 0.031501308 -0.13217793 0.04848858 0.01634801 -0.028658846 -0.10363798 -0.034952514
0.026234727 -0.09739639 -0.01400974 0.08116857 0.0045111147 0.05488132 -0.089705795 0.055618484
0.10277773 0.08403296 0.06883852 -0.029206617 -0.015777085 0.040823437 0.031730145 -0.019318476
0.0536389 0.093991764 -0.03767375 -0.031162225 0.06519571 0.13768882 -0.0734457 0.0024853293
0.027450424 0.034465104 0.0036323674 -0.00075182226 0.0763019 -0.00356843 -0.054229368 -0.048468545
-0.01280599 -0.05091797 0.06565741 0.028230287 0.10540268 -0.02396091 0.09139939 0.017156612
-0.088012844 0.059938576 0.053165562 0.11832189 -0.07167739 0.024873363 0.12463397 -0.13249849
-0.07442764 -0.116077155 0.04098285 0.0402674 0.01200522 0.04105097 0.08463348 -0.03264988
0.07592845 0.04696143 0.022601819 -0.028443497 -0.01194473 -0.025906859 0.012711865 0.020172697
-0.026884202 -0.04095684 -0.046107706 -0.042991858 -0.054786615 0.029127995 -0.0076263435 0.025787992
0.0047931406 0.018175885 0.006263795 0.07226561 0.010637325 -0.08631624 0.0003761629 0.0015230647
-0.122540385 -0.042961087 -0.12374296 0.04701608 -0.035942405 -0.07437558 -0.038066253 0.03298291

lstm1.weight_hh_l0 f4 [512, 128]
00000000: 5c46 98bd e842 cabd cffa 2d3d 26d5 d7bc
00000010: 3184 8bbd 21f8 ddbd 3b6d 1c3d 4a9d 233d
00000020: ae58 87bb 0e7a 923d 0372 31bd c2dd fc3c
00000030: 7302 c83d 535d e0bc 3a3d 773d c201 f7bd
00000040: d284 8e3d 90e9 a2bd 72dc 9cbc 2337 8f3c
00000050: 73b0 843b c8e7 aabd 91cf 363d 32f6 6c3d
00000060: 4f97 98bd dfc7 82bd d5de eebd a47a a2bc
00000070: 2222 2b3d 9ed1 a3bc 6ceb c33d 8913 323c
00000080: 1c9c f63c 51c0 9f3d 7160 babc 75c1 a93c
00000090: 91c2 fc3a a950 1f3d 6277 4fbd 33c8 4bbd
000000a0: df55 a43b 3047 5dbd 8419 dabc dd9a 8c3d
000000b0: 14f0 8f3d e612 67bd 6471 e63d f556 7f3d
000000c0: 6de5 07bd 56e2 8f3d 0eff 86bd 64c3 c7bc
000000d0: 0eb6 87bd af7d 4cbd 0e36 76bc 2541 7d3b
000000e0: 1baf e33c 7892 38bd 9e07 203a cd0e d43d
000000f0: 3647 9b3d a4c7 f13d a972 ac3d a518 d6bc
00000100: 48ae eebd 52d7 a5bd 1db7 de3c 2bbe adbc
00000110: e20a 4a3d dd24 9dbd 7f71 123d c61b a53d
00000120: 7404 2d3d eaff a73b 9dd8 3e3d f090 9e3b
00000130: 83e6 443b ab54 4fbb a1b3 0cbd 2637 973d
00000140: 8814 48bd 6579 ab3d 51aa e8bc bbf8 bbbd
00000150: e0cd 6c3d 02dd 803d 7093 e6bc 21f9 5bba
00000160: 35cb 443d e853 9f3d 6610 013d 4a82 183d
00000170: 4f2f 923d ce1f 9bbc c216 c2bd 49d5 573d
00000180: e9d4 aabd 2b3f 28bd 96d6 7bbc 470c 573d
00000190: bb9b b23c 062d 523d eb9a 92bc 7ecd c93d
000001a0: 993d ca3b ca86 c43d 3c78 5b3d 8f82 2abd
000001b0: 0bc0 843d 022c db3d 3ec7 943d f309 583b
000001c0: 2d13 1f3d 6c45 d43d dfa3 ba3d 3570 f0bc
000001d0: 8a10 c03c bd95 42bd c29e d5bc a1a8 1e3d
000001e0: fc52 a1bd a24f 183d 81f5 213c 643e 9cbc
000001f0: 549c cebb ddcd 813c 241d babd 997e 48bd
00000200: b466 dabd eeba 8dbd 3a54 4c3c f5a3 7ebd
00000210: 0751 1f3d 8f9c e6bd 5624 54bd 1eba 9bbd
00000220: 570a cdbd 2f45 923d 5ae4 8d3b 2638 5abd
00000230: c7e1 813d 76bb 993d 40fe a13d 04e2 833c
00000240: e623 583d c48b 00bd a520 ce3c afe7 a4bc
00000250: 70b3 d2bc f49b dcbc 52f1 4c3d b33d d93c
00000260: 058b 22bc dceb adbc 16f9 373c 6bb3 60bd
00000270: d3c5 7239 b6d1 b4bd d39a a03d a8be 64bd
00000280: d67c 463d 5f91 033d 37b2 5ebd 9d37 603d
00000290: 6e38 f53d 427f 9d3c e041 b0bc f26d 9f3b
000002a0: cf9d 703d 61cf 01bd cef6 4e3c 3158 67bb
000002b0: 62f7 58bd 668c ab3c ff40 f5bc 27bb 9f3c
000002c0: 930d 173b a605 e9bd e670 30bd 7dd1 f13c
000002d0: 288f dd3d 0d41 b2bb de12 db3d 8690 a33a
000002e0: 1efd 6cbd 6a46 96bb 2306 703d 723a c03d
000002f0: 3e05 003d 0f27 993d fdf7 60bc 6548 d03b
00000300: 28c8 4b3d 801a dbbc 7347 fa3c 0fed f7bc
00000310: 63f7 143a 37d5 3f3d 209f a4bd 939c 873b
00000320: e68d 8a3b ab72 e3bc d495 a53d f0b6 4ebb
00000330: df75 9bbd 0994 5b3d 5057 d33d 2bb9 2c3d
00000340: 48aa 083d 1a9a e4bc 0985 5cbd bad0 5fbd
00000350: dad6 d7bd 8845 80bd 871d 8cbb b980 1d3d
00000360: fcf1 103d d6d8 843d e104 a03c 421d 3abd
00000370: 7647 303d 95e7 9d3d 3f6a 413d 10b9 dabc
00000380: d4ff 33bd bfd9 4cbd b74e 32bd 62fd 673d
00000390: 2bfa cd3c f506 1ebd 7b4e 343d 0b20 303d
000003a0: d9e3 313d a6de dd3d 1cc6 03bd d939 b23c
000003b0: bf63 db3c 2259 c73c ff87 55bc 8f2b 283d
000003c0: 027a d5bd 4240 ef3d 6267 503d 06ba 983c
000003d0: 81a4 763a e2e4 043c 817a c03c be0a 14bd
000003e0: 504b 853d 955c 76bd 5b11 023d 2557 a8bc
000003f0: d58d 993d a290 f0bc c23b b0bc 41e2 ddbd
-0.07435295 -0.098760426 0.042475518 -0.026346754 -0.06812323 -0.108383425 0.038190108 0.039944924
-0.0041304445 0.07152186 -0.04332162 0.030867461 0.09766092 -0.02738825 0.060361125 -0.12060882
0.06958927 -0.07954705 -0.019148085 0.017482346 0.0040493547 -0.0834499 0.044631545 0.057851978
-0.07450735 -0.06385779 -0.116635956 -0.01983387 0.0417806 -0.019997414 0.095663875 0.010868915
0.030103736 0.07800353 -0.022751065 0.02072213 0.001928406 0.038895283 -0.05065096 -0.04975147
0.0050151194 -0.054022968 -0.026623495 0.06865475 0.07028213 -0.056414507 0.11252096 0.062338788
-0.03317778 0.07025592 -0.065916166 -0.024385162 -0.06626521 -0.04992455 -0.015027536 0.0038643565
0.027793458 -0.04506156 0.00061046507 0.103543855 0.07581942 0.118056566 0.08420307 -0.026134798
-0.11654335 -0.0809771 0.027186925 -0.021208843 0.049326785 -0.07673047 0.03575277 0.08061938
0.042240575 0.005126943 0.046593297 0.0048390552 0.0030044622 -0.003163616 -0.034350995 0.073835656
-0.048847705 0.083727635 -0.028401526 -0.09178301 0.057813525 0.06292154 -0.028146476 -0.000839131
0.048045356 0.07779676 0.03150978 0.03723363 0.0713793 -0.018936064 -0.09476997 0.05269364
-0.08341391 -0.041075867 -0.0153709855 0.052501943 0.021802774 0.05131247 -0.017896136 0.09853648
0.006171894 0.095960215 0.05358146 -0.041628417 0.06481942 0.10701753 0.07264565 0.0032964915
0.038836647 0.10364804 0.09113287 -0.02935038 0.023445386 -0.047506083 -0.026076678 0.038735036
-0.07877156 0.03718532 0.009885193 -0.019072719 -0.006305257 0.015845234 -0.090875894 -0.048948858
-0.1066412 -0.0692042 0.012471253 -0.06216808 0.038895633 -0.1126033 -0.051792465 -0.076038584
-0.10011738 0.07142102 0.0043302 -0.053276204 0.06341892 0.075064585 0.079098225 0.016098984
0.05276861 -0.03138329 0.02516205 -0.020130007 -0.025720328 -0.026929833 0.05003483 0.026518678
-0.00992084 -0.02123063 0.01122882 -0.054858606 0.00023152614 -0.08829062 0.078420304 -0.055845886
0.048458897 0.03212106 -0.054369178 0.054740537 0.11973654 0.01922572 -0.021515787 0.0048654014
0.058744248 -0.031691913 0.012632085 -0.003530037 -0.052970298 0.02094097 -0.02993822 0.01949842
0.0023048862 -0.113780305 -0.04307642 0.029518837 0.108183205 -0.0054398836 0.10696958 0.0012478984
-0.05785858 -0.0045860307 0.058599602 0.093861476 0.031255 0.07478153 -0.013731 0.0063562864
0.04975143 -0.026746035 0.030551648 -0.030264406 0.00056826154 0.046834197 -0.08038163 0.004138538
0.0042283414 -0.027764639 0.08085218 -0.0031542145 -0.075908415 0.053607974 0.10319388 0.042168777
0.033365518 -0.027905513 -0.05383781 -0.054642417 -0.105390266 -0.06263262 -0.004275981 0.038452838
0.035387024 0.06486671 0.019533576 -0.04543806 0.0430369 0.077101864 0.047220465 -0.026699573
-0.04394515 -0.050012346 -0.0435321 0.05663813 0.025143703 -0.038580853 0.044020157 0.04299931
0.043430183 0.108334824 -0.032171354 0.0217561 0.026780961 0.024334494 -0.013032912 0.041057166
-0.10423662 0.11682178 0.050879844 0.01864339 0.0009408668 0.008111211 0.023495914 -0.036143057
0.06508505 -0.060146887 0.031754833 -0.020549366 0.074977554 -0.029365841 -0.02151287 -0.1083417

lstm1.bias_ih_l0 f4 [512]
00000000: 58d7 93ba fb23 c9bc 37ff 42bd cf60 2cbc
00000010: 4ed4 5a3d 237f 683d 9d1b 263d aff6 c4bc
00000020: c58d bd3d ee79 d0bd 0dfc 023a 6e73 8bbd
00000030: bb7f c73d db0e c43c beff 943d 023c 213d
00000040: 3960 57bd 279b ce3c 18df 823c 8b68 ca3d
00000050: 5223 d93d 891b 3bbd 9433 043e 825b febd
00000060: 038d 083e 3439 c23c 9657 2b3d 8129 00bd
00000070: 5bd1 a7bd 3967 383d 533d 87bc bed0 463d
00000080: 76c8 683d ef4e b33d 4712 823d e688 353d
00000090: c87b f5bd c05a 923c f9a1 b13c a7b1 bd3d
000000a0: 002e c63d 61c0 02bd 2ce7 b83d d17b ca3d
000000b0: 47f8 7bbc b357 f13d 1599 f2bb 92c6 be3d
000000c0: 7a29 bbbd f2a5 0f3d 329b a9bd 30fd 2abd
000000d0: 7f90 8abd e549 1abd 2219 3d3c aa5c c73d
000000e0: 1764 033e cb40 d1bc 1dbf cb3d 723d 24bd
000000f0: 34a9 a53d 9e48 a83c ff2a 673d 493e 083d
00000100: 93e0 8e3c cf11 a7bd ddc8 613d fe1b 42bd
00000110: 4cfa 373d 5f90 b3bc 1d20 1cbd 563f c83c
00000120: 82fa 893d d6a6 dd3d 999f 36bd 566c 24bc
00000130: 5b49 5bbd 8f02 133c 848d 873d a344 283c
00000140: b283 43bc 9a60 313d aa54 1a3d d02b 083e
00000150: 19b7 06bc f458 fabd cd54 443d ef7d 543c
00000160: 0844 67bc 6587 ca3d db93 06bb a8f8 b43d
00000170: 32c3 973d d0b3 fb3a 7f3a 1c3d 4a4b 07bd
00000180: f4bc 26bc eb08 b1bd 8543 0dbb 708a 8a3d
00000190: e2e8 bfbb 3896 91bc d268 c4bd dcb5 eabc
000001a0: 5fa1 f23c cfa9 e93d 4e7c 5bbd 434a f2bc
000001b0: 8301 c5bd 39bb bcbc a1fa 8d3d dd97 d23c
000001c0: 91c8 e6bb b549 9e3d aef4 813d 180f a6bc
000001d0: 1b97 503d 1238 9bba a4f1 063e 70cf 853c
000001e0: 5545 503d bed2 d73d 9470 703d 77f7 dd3d
000001f0: ede4 92bd 27a0 d03c 3966 81bd c10d c93d
00000200: a4f6 da3c 0743 3bbd 3115 be3c 0731 29bd
00000210: b3c1 c9bc 91fe 093d 056e a63d 5f72 acbc
00000220: b92c ab3d bf80 333c 9c55 de3d ddf0 2cbd
00000230: 48f2 49bc f1de 753d 3a9b 033e d9ed 033d
00000240: 985a 8ebb a962 d6bc 4159 efba db7f d63d
00000250: 743c ce3d d490 8dbd a650 0d3e 32f3 84bd
00000260: 42cc e43d 69f6 91bd 72e8 9c3c 6d78 443c
00000270: 6107 c3bd ce0b 23bd e1a3 b6bc 63c4 5a3d
00000280: 60d7 c43d 4f1a 833d 06e7 5e3b 0bde bcbc
00000290: b807 a2bd e1cd 71bc bf41 2bbd 69ea 51bc
000002a0: 87e4 21b9 355f 43bd 7367 653d 3614 573d
000002b0: 23f9 203d 9713 063e 5b0b aa3c bd4e 643d
000002c0: 1333 33bd 8ab0 0d3d 3e96 16bd 91ea d33d
000002d0: 9368 f5bd bf19 033c d553 dcbd 2517 e83d
000002e0: 9418 9ebc 50d4 7abd a6aa 8f3d a8e5 803d
000002f0: 1515 ec3d 5bb8 58bc 6297 e93d 9a7e c1bd
00000300: 2cb7 81bc 399b d0bd 6df6 853b 0c98 c6bd
00000310: 65a0 9d3d ab45 783c f361 a93c 209f 993c
00000320: 20f9 e43d 40ca 9a3d 5391 93bd d936 833d
00000330: 4527 433d 26e4 003e 5d49 8c3d b4f8 16bc
00000340: 68d4 d33d 6103 2fbc 64a0 80bc 7f69 e93d
00000350: 8103 17bd dfb4 243d e400 ea3d 114c e23d
00000360: f079 a4bd 49a8 a33c 2465 d03c 6c4a 033b
00000370: 3255 8dbd c95a 913d 3482 9bbc a98a 5ebd
00000380: d2c9 fe3d 856d 92bd 9583 dd3d 6c85 ec3d
00000390: e306 683c 3ec1 f53b 4ff3 babd 4192 15bc
000003a0: 2ad0 b9bd 0d16 e3ba 6192 84bd 6d75 e0ba
000003b0: 68a6 5dbd fe26 ff3d 9b6f 863d 8aa0 f43d
000003c0: fddc f4bd b996 433d 0077 f23d 4463 5d3d
000003d0: aac1 7a3c f253 18bd 860f 6d3a 8f4e a8bd
000003e0: 418a cebc 48d6 ac3d f0e2 553d e581 e13c
000003f0: d326 0f3d fb31 c73d 64d4 57bd d649 023e
-0.0011279387 -0.02455329 -0.047606673 -0.010521128 0.053425126 0.056761872 0.040553678 -0.02404341
0.09255556 -0.10179506 0.0004996665 -0.06809126 0.097411595 0.023932865 0.072753415 0.03936387
-0.052582 0.025220467 0.01597552 0.09883221 0.1060244 -0.045680556 0.129103 -0.124197975
0.13335042 0.023708917 0.041831575 -0.03128958 -0.08194228 0.045020316 -0.016508734 0.048538916
0.0568318 0.0875529 0.063511424 0.04432001 -0.119865 0.017865539 0.02168368 0.092624
0.096767426 -0.031921748 0.090284675 0.09886897 -0.015379018 0.117843054 -0.0074035027 0.09315218
-0.091387704 0.035070367 -0.08281554 -0.041745365 -0.06765842 -0.037668128 0.011541637 0.09734471
0.1283115 -0.025543591 0.09948561 -0.04009766 0.080889136 0.02054244 0.05643749 0.033262525
0.01744107 -0.081576936 0.0551232 -0.047389977 0.044916436 -0.021919427 -0.038116563 0.024444263
0.06737234 0.10822837 -0.044585798 -0.010035595 -0.053536754 0.008972778 0.06618789 0.0102702705
-0.011933254 0.043305017 0.0376784 0.13297963 -0.008222365 -0.12223998 0.047932435 0.012969478
-0.014115341 0.09889106 -0.0020534906 0.0883649 0.074102774 0.0019203369 0.038141724 -0.033030786
-0.010176886 -0.08644279 -0.0021555137 0.06764686 -0.005856619 -0.017771825 -0.095903054 -0.02865117
0.029617963 0.114093415 -0.053585343 -0.029576426 -0.09619429 -0.023038493 0.06932569 0.02570718
-0.0070429523 0.07728902 0.06345497 -0.02027087 0.050925355 -0.0011842272 0.13178116 0.016334265
0.05084737 0.10538243 0.058701113 0.10838216 -0.071725704 0.025466992 -0.063183255 0.098170765
0.026728936 -0.04571822 0.023203464 -0.04130652 -0.024628496 0.03369004 0.08126453 -0.02105063
0.083581395 0.010955988 0.108561724 -0.042221893 -0.012325831 0.060027067 0.12852183 0.03220925
-0.0043442957 -0.026170092 -0.0018260853 0.10473605 0.10070124 -0.069123894 0.13800296 -0.06491698
0.111717716 -0.07127077 0.019153807 0.011991602 -0.09522892 -0.03980618 -0.02229494 0.053409945
0.09611392 0.06401502 0.0034012212 -0.023055097 -0.079116285 -0.014758558 -0.041810747 -0.012812235
-0.0001543929 -0.04769822 0.05600686 0.05250951 0.039300095 0.1309341 0.020757368 0.055739153
-0.04374988 0.03459219 -0.036764376 0.10347474 -0.119828366 0.008001744 -0.10758177 0.113325395
-0.01929883 -0.061237633 0.070149705 0.062938035 0.115274586 -0.0132275475 0.11405827 -0.094479755
-0.015834413 -0.10185856 0.004088214 -0.096969694 0.076966085 0.015153329 0.020676589 0.018752635
0.11180329 0.075581074 -0.07205453 0.06406946 0.047644872 0.12587032 0.068499304 -0.009214569
0.10343248 -0.010681958 -0.01570148 0.11397075 -0.036868576 0.040211555 0.11425951 0.11049665
-0.0803107 0.019977706 0.025438853 0.0020033373 -0.06901015 0.07097394 -0.018982984 -0.054331455
0.12440838 -0.071497954 0.10816113 0.11548886 0.014161798 0.007499843 -0.09128439 -0.009129108
-0.09072907 -0.0017325297 -0.06473232 -0.0017124839 -0.054113775 0.12458609 0.06564256 0.11944683
-0.11956213 0.047751162 0.11839104 0.054049745 0.015304962 -0.03718943 0.00090431457 -0.08218109
-0.025212409 0.084393084 0.052218378 0.027527759 0.034949135 0.0972633 -0.052692786 0.12723479

lstm1.bias_hh_l0 f4 [512]
00000000: 3764 8ebd 0784 f1bb 23a2 03bd 14e2 b63c
00000010: 7ace d53d f216 923c 17e8 f33d 3200 ea3d
00000020: e64b 5dbd 44ae 133d 47e6 5c3d 1a2e d43c
00000030: fdc7 05bd be5a a03c f194 e83d 86b5 16bd
00000040: 19cc e73c 7c7c 093e a4dd ff3c 518f c33d
00000050: 4341 b53d de28 7a3c d5de ce3d 9ec0 8bbd
00000060: f84e b13d 5424 463d e7f5 b3ba 16ae 903d
00000070: 043a fdbd 1212 80bc 0db5 f73b ffbe 5b3d
00000080: f847 4cbd 0315 89bb 763a a23d b391 713d
00000090: 945d 8abd 086b 6cbd 6d86 a6bd b30a e23d
000000a0: 9865 df3d af88 fdbd 925a f73c 1b02 d23d
000000b0: 2187 713d 9521 653d 4daa 8c3d b9b6 d43d
000000c0: 34cc 2ebd 25dc 453c ebfa d6bd a0a2 ed3d
000000d0: 3712 4f3d 4ed6 453d 880c 2e3d 5b8a cc3d
000000e0: d998 cc3d d018 633d 2340 fb3d e276 b93d
000000f0: 989b 983c c378 103d 528d b63d 5ef3 28bc
00000100: 4a32 a43d 83b7 61bd ffcc 9e3d 7496 f9bb
00000110: cc33 99bb bab2 edbd 9847 fd3c d87f bebc
00000120: 7732 dc3d f612 2a3d 1cfe d1bd 76a1 083e
00000130: 4d2a 75bd 542d 3ebc 1429 043e 30d7 23bd
00000140: 0bb2 d4bc 5dd2 003e 12f9 0ebc 8534 4c3d
00000150: 09ad 13bd 0353 45bd 8cae ef3c 3b92 dc3d
00000160: b363 913d c1f2 2c3d 765a 5b3d 675b 023d
00000170: 47bd 7ebd 06b0 04bd b174 803c 05ea 983c
00000180: 891f 883d d222 38bd 8e5d ea3d 78ea fe3d
00000190: a1a4 0e3d 5a84 053d 3500 bebd a6b6 563d
000001a0: 6ea4 a3bd 2b4a 8c3d e7ff acbd 6dfc bd3c
000001b0: f5e4 1b3d 5ab6 8a3d e39b a43d 6026 923d
000001c0: 00b7 6fbd 1109 443d 4c40 953d 6020 48bd
000001d0: 5584 ba3d e5f1 a4bc 9f00 b73d 089a 29bd
000001e0: ad09 a13d 60b5 b63d d323 bb3c 42ee b93c
000001f0: a79c 08bd fd51 0ebc 4324 463d eadb 9d39
00000200: 5dd7 f7bd 35df d1bd 03fb 91bd 7966 a9bb
00000210: d49a d8bc de93 103b da6a 0e3e e2a3 fc3d
00000220: 3cf2 a33d ccf7 3a3d 4a21 073e 88ee a43c
00000230: fd0b ce3d 23c5 f43d 3d3c 423c 6bdc b5bd
00000240: cdcd 643c cd68 293c 58ed 893d 5dab 7d3d
00000250: d086 563d c847 e5bd 6197 953d a8bb e93c
00000260: 4ca7 6abc 717b 22bd b070 593c 1112 323d
00000270: 5c9d cabd 24eb 9bbd 9f4d 853c 7ad7 10bd
00000280: 21d3 2b3d 2cf2 223d f313 c13d 0e8f fabc
00000290: aa31 473c 6023 1b3d 7d12 debd 320b fd3c
000002a0: f032 1e3b 14ce 733c 7dd5 d9bc e1df ae3d
000002b0: 5a08 b93c b976 4a3d c0b3 fe3b 31bf da3d
000002c0: 3be2 93bd 61e1 88bb dd6c fc3c 52d1 a4bc
000002d0: df4c 54bd b2ef 0a3d f866 ecbc d925 8a3d
000002e0: 8091 a63d 0f38 5c3d 84cf fc3d f8e8 8e3d
000002f0: a4c1 d43d 2862 603d dbd4 b53d b64e 97bc
00000300: 5fa5 1abc 3c74 54bc 2822 8f3b a4b2 7ebd
00000310: 2426 813d d727 c9bd e9c6 a73d 3ee6 813d
00000320: a600 f63d 7f18 5e3c d15b acbd d57d 933c
00000330: b902 8fbd 3318 063e c2e1 d13d 3fc8 a4bd
00000340: 034f eabc b81b eb3c 2c57 053d bd7e c83c
00000350: 56ac cebd 0065 e53c fbe5 05bd 1cb0 763d
00000360: f760 9bbd 7f9c 0ebd 62e8 a0bc 7a21 7ebd
00000370: a0b7 84bc 1a4f 7b3c b2d8 a43d 559a 3ebd
00000380: 8398 f73b d74e c4bd 7aff d43c a786 003d
00000390: 1bc4 b23a f950 cf3d 56dc e33c a4ca 683d
000003a0: 70f5 c5bc b1b9 f03d a3a5 3d3c bf03 c13d
000003b0: b312 21bd 35f5 0cbd 277a ef3d 71cc 993d
000003c0: ba19 ab3c ee24 833d 2628 fdbc 1cbb 22bd
000003d0: 1524 c4bb 6b3f 8bbd d7e8 853c 921c a73d
000003e0: 808b 023d 4755 23bc ca4e 47bd 1f8f e73c
000003f0: 34d2 4bbb 9f99 823c 6399 30bd 115f 0bbc
-0.06952708 -0.007370475 -0.032137047 0.0223246 0.10439773 0.017833207 0.11909502 0.114258185
-0.05402746 0.036054865 0.053930547 0.02590089 -0.032661427 0.01957452 0.11356533 -0.036794208
0.028295564 0.13426393 0.031233616 0.0954882 0.08850338 0.015268533 0.101010956 -0.06823848
0.0865764 0.04837449 -0.0013729901 0.07064454 -0.12364581 -0.015633617 0.0075594247 0.053648945
-0.049873322 -0.004183413 0.07921307 0.05897684 -0.0675613 -0.05771926 -0.081311084 0.11037197
0.10908049 -0.12379586 0.030194554 0.10254308 0.05896676 0.05594023 0.0686842 0.10386414
-0.042675212 0.012076412 -0.104970776 0.11603284 0.05055448 0.04830008 0.04249242 0.09987327
0.09990091 0.055443585 0.122680925 0.09055878 0.01862888 0.035271417 0.089136735 -0.0103119295
0.080174044 -0.05510665 0.07753944 -0.0076168124 -0.004675364 -0.11606355 0.030917928 -0.02325432
0.10751813 0.04152199 -0.10253546 0.13342842 -0.059854794 -0.011607487 0.12906295 -0.04000014
-0.025963804 0.12580247 -0.008726375 0.049854774 -0.03605369 -0.04817487 0.029258035 0.10770079
0.07099094 0.042223696 0.053553067 0.03182545 -0.062192228 -0.03239443 0.015680643 0.018666277
0.0664664 -0.044955082 0.114436254 0.12447065 0.03482497 0.032596923 -0.09277383 0.05242028
-0.07990347 0.06850084 -0.08447247 0.023191655 0.038060147 0.06773062 0.080375455 0.07136226
-0.05852413 0.04786021 0.07287654 -0.048859 0.091072716 -0.020134876 0.08935665 -0.04140666
0.07863174 0.08921313 0.02284423 0.022696618 -0.03335252 -0.00868654 0.048374426 0.00030109222
-0.12101624 -0.102476515 -0.07127955 -0.0051696864 -0.026441015 0.0022060792 0.13907948 0.12335946
0.08005187 0.045646474 0.13196293 0.020133272 0.1006088 0.11951663 0.011855182 -0.08879932
0.013965082 0.010339928 0.06734723 0.061931003 0.05237466 -0.11195332 0.07304264 0.028531864
-0.014322113 -0.039668504 0.013271496 0.04347426 -0.09893295 -0.07613209 0.016272364 -0.035361744
0.041949395 0.039781734 0.09427633 -0.030585792 0.012157837 0.037875533 -0.1084337 0.030889127
0.0024139248 0.014880676 -0.026591057 0.08538795 0.02258699 0.04942963 0.0077728927 0.10680998
-0.072208844 -0.004177258 0.030813629 -0.020119343 -0.051831122 0.033919998 -0.028857693 0.067455
0.08133221 0.0537644 0.12344268 0.06978029 0.103884965 0.05478111 0.088784896 -0.01847015
-0.009438842 -0.012967166 0.0043680854 -0.062182084 0.06306103 -0.09822052 0.08192236 0.06342743
0.120118424 0.013555645 -0.0841595 0.018004337 -0.06982941 0.13095169 0.10248138 -0.080460064
-0.028602129 0.02869974 0.032553837 0.024474496 -0.10091464 0.028002262 -0.03269003 0.060226545
-0.07586854 -0.034817215 -0.019642059 -0.062043644 -0.01620084 0.0153386835 0.08049144 -0.0465339
0.0075560226 -0.0958535 0.026000727 0.031378414 0.0013638766 0.10122866 0.027815025 0.05683388
-0.024164885 0.11754168 0.011575135 0.09424543 -0.039324474 -0.034413535 0.116932206 0.07509697
0.02088629 0.06403528 -0.030902933 -0.039729223 -0.0059857466 -0.067992054 0.016346378 0.08159746
0.03187132 -0.009969062 -0.048659123 0.028266488 -0.0031100633 0.015942393 -0.04311503 -0.008506552

lstm1.weight_ih_l1 f4 [512, 128]
00000000: bd8d 0fbd 3311 e63d bbda 4bbc bc31 71bd
00000010: a84a 4b3d 4832 83bc 043f 053e 46f1 d9bc
00000020: e3e6 d63c fd76 80bb f5b3 943c 758d 86bd
00000030: d9f9 7cbd c228 48bc 2d32 0cbd daee 0cbc
00000040: 675e 953c 199c 143d ff75 aebd ea39 323c
00000050: a52f b9bc d9fd d83d a160 fc3d 1145 ae3c
00000060: 2162 b5bc 9587 543d fb93 093d 6a42 26bd
00000070: 6e9d 0f3c 70e2 be3d 95f7 1f3d f1a9 f33d
00000080: b11b acbd cbf5 06be c5d8 11bd 0ba4 013e
00000090: 04bd a93d 1f36 843c 662d 7c3c b71e 3fbc
000000a0: 83b5 6d3d fa41 f73c 4734 08be b399 38bb
000000b0: d72f e6bc 8254 16bd 9274 7dbd f4ef 18bb
000000c0: 798f 4f3d 74ad 5dbd f011 1fbd 3cb5 973c
000000d0: 6498 ab3c f016 debb b410 35bd 05dc 403c
000000e0: 54bb 1d3a e3dc d63d 8ca7 74bd a1e3 6abd
000000f0: d3be e0bd cabd 98bd 2cb1 b4bc 9755 683c
00000100: 5d74 ad3d a0b9 62bd fd63 c5bd 2cb5 28bd
00000110: 08d3 053e 93fd e53b 898b 983d b38a 583c
00000120: ee4c 3dbb 10e4 c13d c4a0 a43b f299 d63c
00000130: d2af eabd a5ff a43d aa16 95ba b4ba 903b
00000140: b3c4 25bc 7e07 4cbd 2eaf 05be cf86 f73d
00000150: 40f3 3cbd db89 843d 4ebb f7bd f46e 083e
00000160: 8c04 0d3d 01ae cdbc 0356 023e 73bf e3bd
00000170: ecf5 c1bc 05f1 e1bd f37b 793c f2ba e9bd
00000180: a6e6 38bb 376f 603d e245 e0bb e9dc 273c
00000190: d3f6 b4bd 3c94 dcbd 5c48 7d3d d230 05be
000001a0: 3385 3abd f659 07be ce8c e6bd 558f c83d
000001b0: 4727 7e3d f71c 90bd 105a 1e3d 1739 af3c
000001c0: 1049 bebd f4b9 0abe d192 bebd a0d7 f4bd
000001d0: 390e 9f3c a2d7 debd d055 babd aef5 9abd
000001e0: 9756 a0bc 4bd0 043d 0851 d03d e786 383b
000001f0: 222f ef3d b79e c63d aae3 6d3d f461 d83d
00000200: 6db2 12bc 63b0 293d 967f 83bd 38ff a93b
00000210: 8a80 df3a 4d0f da3d 3190 d03c c809 d93d
00000220: 6517 2a3d 4d3c 89bc 0bf8 adbc 7815 af3c
00000230: 8b63 3fbd ec34 0bbe 1273 b4bb dd27 933d
00000240: 4379 e93a 3699 88bc 6a3b bebd 5327 e7bd
00000250: e74c 04bd bd49 803d e4f4 463c aa0d 783d
00000260: b83c f63d 7c82 063d a41c 4a3d b37f ae3d
00000270: 85c5 c13a 5eac fa3b 6504 77bd 2c32 723d
00000280: 69d7 02be 77f9 b9bd 5091 043d 1349 a33d
00000290: 9e82 d43d 55ce d3bc bb3c d5bd 4fc5 7d3d
000002a0: e523 553c 2279 97bd 24fa 863c 387d a7bd
000002b0: 0b20 cf3b 5215 803d c04c 9fbd 2b30 bbbd
000002c0: d98f 843d 6daf a0bc 34af 24bd c041 29bc
000002d0: de4c 923d f611 51bd c616 34bd e356 4f3d
000002e0: dd98 f2bd aac5 92bc 9e95 9c3c cd01 b9bc
000002f0: d039 93bd 9957 76bd 43b4 5dbd 36d2 363d
00000300: 39b1 8e3d a6fa b13d 0884 f43c aca2 cf3d
00000310: c5e7 313d df7b 54bd 84ba 5a3d e5f0 30bd
00000320: 282b c7bd e305 103d 2c42 38bd 4bb1 bbbc
00000330: 7537 88bd 8951 04bd 23cb adbd 0c22 cf3b
00000340: d8d1 20bd 8e23 3a3c b7cc 4dbd 2b44 00bc
00000350: d5f4 493d 4701 74bd 87ef 45bc d86a 073e
00000360: f839 f9bd 0b17 36bc bb58 783d f5e9 32bd
00000370: 1f39 27bd 6292 8a3c d5a3 033e 9a62 7abd
00000380: 4b8f 04bd fd7a 82bd 716f b3bd bc7a 0a3d
00000390: 5892 fdbd 8779 093d 1ff4 af3d 438b d7bc
000003a0: 38d0 0dbd 1762 e6bd fe5f 6ebc 1a6c a83d
000003b0: 1949 82bd 3a60 68bd 62e1 7bbc 2f82 07be
000003c0: 2fb9 b9b9 1fee d4bd b5b6 b0bc 6b0f 92bd
000003d0: 1859 e33c 98e5 633d 6e31 ffbd c61c 4fbd
000003e0: fcca 2b3a 18bc 9bbc ba62 083e 43fd 22bc
000003f0: caca b03d 0922 5e3c 6970 373d 86df df3d
-0.03504728 0.11233749 -0.012442286 -0.05888532 0.049631745 -0.016015187 0.1301232 -0.026604306
0.026233142 -0.0039204345 0.018152216 -0.065699495 -0.06176171 -0.012216749 -0.03422754 -0.0086018685
0.018233491 0.03628168 -0.085186 0.010878066 -0.022605726 0.105952926 0.12323118 0.021273168
-0.022141518 0.051887114 0.03358839 -0.04059068 0.0087655615 0.09320533 0.039054472 0.11897648
-0.08403719 -0.131797 -0.03560712 0.12660234 0.08288005 0.016139088 0.015391683 -0.011665038
0.05803443 0.030182827 -0.13301192 -0.0028167784 -0.028098984 -0.036701687 -0.06187875 -0.0023336383
0.050673936 -0.054120496 -0.038835466 0.018519036 0.020946689 -0.0067776367 -0.044205382 0.011771207
0.0006016989 0.104913495 -0.059730098 -0.05734599 -0.10973897 -0.074580744 -0.022057138 0.014180562
0.0846946 -0.055352807 -0.09638212 -0.041188404 0.13068783 0.007018754 0.07448489 0.013216662
-0.0028884965 0.094673276 0.0050240476 0.026196454 -0.11459316 0.08056573 -0.0011374552 0.004416788
-0.0101176975 -0.049811833 -0.13055107 0.120862596 -0.04613042 0.06471606 -0.120962724 0.13323575
0.034428164 -0.025107386 0.12728123 -0.111205004 -0.023676835 -0.11032299 0.015227306 -0.1141261
-0.002821365 0.054793563 -0.006844268 0.01024554 -0.088361405 -0.10770461 0.061836585 -0.13006905
-0.045537185 -0.13217911 -0.11257325 0.097929634 0.062049177 -0.070367746 0.03866011 0.021389527
-0.09291279 -0.13547498 -0.09305347 -0.1195519 0.019415962 -0.108809724 -0.09098399 -0.07566391
-0.01957254 0.032425206 0.101717055 0.002815658 0.11678912 0.09698241 0.058078445 0.10565558
-0.008953673 0.04142798 -0.064208195 0.005187895 0.0017051857 0.1064745 0.02545938 0.10597569
0.041526217 -0.016752386 -0.02123644 0.021372542 -0.04672579 -0.13594407 -0.0055068815 0.07185338
0.0017812628 -0.01667462 -0.09288676 -0.112867974 -0.032299902 0.062640645 0.012143347 0.060559906
0.120233 0.032839283 0.04934372 0.085204504 0.0014783597 0.0076499423 -0.060306925 0.05912988
-0.12777485 -0.09080785 0.032365143 0.07972922 0.10376476 -0.025855223 -0.10411974 0.061955746
0.013009046 -0.07396151 0.016476698 -0.081781805 0.0063209585 0.062540665 -0.07778311 -0.09140047
0.06472749 -0.0196149 -0.04020615 -0.010330617 0.071435675 -0.05104252 -0.04396703 0.05061997
-0.118455626 -0.01791652 0.019114312 -0.022583866 -0.07188761 -0.060142133 -0.05412699 0.044634067
0.06967396 0.086903855 0.029848114 0.10138449 0.043433923 -0.051875945 0.05340053 -0.043198485
-0.09725028 0.035161864 -0.04498498 -0.022911688 -0.066512026 -0.03230432 -0.08486011 0.0063211974
-0.039262623 0.011361016 -0.05024406 -0.0078287525 0.049305756 -0.05957153 -0.012081034 0.13224351
-0.1216926 -0.011113892 0.060631495 -0.04368015 -0.04082596 0.016915504 0.12855466 -0.06112919
-0.032363217 -0.063711144 -0.0876149 0.033808455 -0.123814285 0.033563163 0.08591484 -0.026311522
-0.0346224 -0.11249178 -0.0145492535 0.08223744 -0.063615985 -0.056732394 -0.01537356 -0.13233255
-0.00035423922 -0.103969805 -0.021571497 -0.07131847 0.027752444 0.05563888 -0.124606 -0.05056455
0.00065533794 -0.019010589 0.13318911 -0.009948078 0.08632429 0.013557919 0.044784937 0.109313056

lstm1.weight_hh_l1 f4 [512, 128]
00000000: 7903 f53c bb07 b73d 6de1 89bc 0317 efb8
00000010: 5f9a 283d 02b7 ab3d 2cc7 a3bc 5248 c2bc
00000020: 2695 09bd ede9 debd 1cb2 cfbd b0a6 8f3d
00000030: 12f3 233d 646a 8cbd f009 65bc 53f5 6f3d
00000040: 22cd 07bd f9db a8bd 70b4 15bc 0f1c 6bbd
00000050: 702c 0ebd e6e1 41bc f3d3 c0bc 0bc3 e63b
00000060: ddb1 5bbd 1157 ddbd af8d 89bc 8af9 073e
00000070: 0da6 06bd d21b afbd ac78 21bd 8c36 813d
00000080: 1a38 19bd d49a e3bd a6a8 853d 413d e23c
00000090: 3a5a 1b3d e650 2c3c 4c3e dbbd ad70 96bd
000000a0: 0681 2ebc 5be0 58bd 9b95 6dbd e4a6 8c3d
000000b0: 08a4 a03d 4c1f 9d3d fc08 c3bc 88d5 7c3c
000000c0: 00b1 a3bd 81bf 103d 6f80 8a3d 75f9 88bd
000000d0: fb44 debc ea16 043d 7452 d23d a9b5 943d
000000e0: 407d fdba 5d8c b3bd 7c14 b33c 0045 973d
000000f0: 00a3 ef3d b785 9abd f90d 473d e712 063e
00000100: 7e7c ec3d b170 e03d 20aa f3bc dd78 ea3d
00000110: f0af af3c ecec e33d a672 46bd 6d04 b63c
00000120: 256f eabc 27ac da3c fb00 713d b2ef d13a
00000130: af74 2f3d b86f 7c3d c3ce a3bb 633f 06bd
00000140: 91d3 2b3d 00e6 543d 5fa9 c7bc f33e f3bd
00000150: b7ab c0bc 270b f3bd 54dd c6bd d8dd 13bd
00000160: 8fa8 9cbd 17f8 db3d 8c52 0fbd e8a8 ca3d
00000170: ed65 e73b 0d64 b8bd 4567 163d a6c8 f63b
00000180: 9041 483d a603 0bbd cc2b 733b ade2 b0bd
00000190: 6cf6 c139 7920 053e d25d 46bc 5181 913d
000001a0: dd17 153c 2405 993c 533a b63c f4e2 023e
000001b0: 3497 02bd 3027 dbbd fc38 333d a3fd 593d
000001c0: 0995 f33d b7d1 ae3c 3008 ddbc 750d 2fbd
000001d0: f9d9 283b 4c96 8a3c 2586 5dbd fdd6 bbba
000001e0: 7d7d e3bd 0be6 f6bd a820 513c 2f77 b23c
000001f0: 49aa f33b 8a70 73bc 7592 6b3d 7a68 cc3d
00000200: a0e9 b6bc 5d8c 1f3d 4b80 83bd 4f17 a1bd
00000210: 3b7c d63d 2764 bf3d a378 8c3d c8c1 0bbd
00000220: 7202 4ebd a96f e83c ed56 c4bd 6cd0 5cbd
00000230: 8377 f6bd 9683 c2bd 9f61 b33b d515 1c3d
00000240: 387a eb3b 54f7 69bd 8c8f d13d 81b9 d4bb
00000250: 400a d1bd 677e 97bd 3415 6d3c e57d 613d
00000260: ffca ad3d 5431 57bd 0959 e5bc 1716 f03d
00000270: 2e75 e93c 7bec e73b fc0b fabc 216d 06bd
00000280: 0f01 bebc 4ccb 933c 172d 4bbb 4fc5 ba3c
00000290: 068a e1bd 7bee 44bd 3f27 f1bd 112f 93bb
000002a0: 011a 70bd cc64 e7bc bfcc d5bb c019 163d
000002b0: 42d3 773d 4837 a6bc 1636 9b3c c0aa f7bb
000002c0: a613 78bd c718 033e 3853 113d dc69 873d
000002d0: 317a 23bc 8c50 3abd 9ae8 57bd 20ad 8abd
000002e0: a6ea 3fbc 54c9 92bd 89c7 ca3c 63ba cdbc
000002f0: eb9c 2dbd 21ba 07be b309 a6bd e8ae c33c
00000300: 5a15 153c bd33 a03c 37cb 0b3e b8dd 3d3c
00000310: e410 b1bc c888 a53d 3fff 86bd c66b 18bc
00000320: b300 e73d 5fc8 aa3d 23c9 82bd aa17 b53d
00000330: 1a0a d0bc c461 933c 2ce5 963d 7905 c8bd
00000340: f013 f5bd 0ea9 ba3d 97d0 b93c ac03 5fbd
00000350: 1847 783d 394b 94bd 0873 4bbc 16ed dabb
00000360: 877f 55bb 1244 f13b ef7d d83d 886d 713d
00000370: 1502 e9bd 0f49 703d 1f0e 333d 25b0 fb3d
00000380: 4b5b 4d3d c0bc cabd ce1c 473d 9111 da3c
00000390: cd8f c73c 265b 43bc d5ce 383d c2ec e43d
000003a0: 185e 59bd 8eaa d4bc 7e9c 8e3d 27fd 45bc
000003b0: 2d53 ce3d 4d78 81bc 0293 843d b8d8 fbbd
000003c0: b331 3ebc 195c fb3c 6a20 66bd 01ca c8bd
000003d0: 1ebb 843c 0ec6 e6bc 826d a3bd fb63 213d
000003e0: 650e a1bc 8364 59bd c8cd d0bc 9e19 de3b
000003f0: 8e54 2abd 64fb e53b 5b08 a93d 3999 6c3c
0.029908882 0.08937021 -0.016831124 -0.00011400694 0.041162845 0.08384515 -0.019992433 -0.023716126
-0.033589505 -0.108844616 -0.101413935 0.07014215 0.04002673 -0.0685623 -0.01397942 0.05858357
-0.033154614 -0.082450815 -0.009137258 -0.057399806 -0.034710348 -0.011833644 -0.023538565 0.007042294
-0.05363642 -0.10807622 -0.016791193 0.13278785 -0.032873202 -0.08550228 -0.039421722 0.06309232
-0.03740702 -0.111135155 0.06526308 0.027617099 0.037927844 0.010517335 -0.107052416 -0.0734571
-0.010650879 -0.052948337 -0.058004003 0.06867769 0.078437865 0.07671985 -0.023807995 0.015431769
-0.079927444 0.035338882 0.06762778 -0.06688205 -0.027132502 0.032248415 0.10269633 0.072612114
-0.0019339696 -0.087670065 0.021860354 0.073862076 0.11701012 -0.07545035 0.04859731 0.13093148
0.115471825 0.10958994 -0.029744208 0.11448834 0.021446198 0.11129174 -0.04844918 0.022218907
-0.028617451 0.026693417 0.058838826 0.0016016869 0.042835888 0.06162998 -0.004999013 -0.032775294
0.041949812 0.051977158 -0.024372755 -0.11877241 -0.02351938 -0.118673615 -0.09710184 -0.03610024
-0.076493375 0.10740679 -0.034990832 0.098954976 0.007061711 -0.09003458 0.03671958 0.0075312434
0.04889065 -0.033939026 0.0037104962 -0.08636985 0.00036995427 0.13000669 -0.012107329 0.07104743
0.009099928 0.018679209 0.022244608 0.12781888 -0.03188248 -0.10700834 0.043755516 0.053220402
0.118936606 0.021340234 -0.026981443 -0.042737443 0.0025764687 0.01691737 -0.05408301 -0.0014331039
-0.11107919 -0.12055596 0.0127641335 0.021785347 0.007436071 -0.014858374 0.05751272 0.09980865
-0.022328198 0.03895222 -0.06420954 -0.07865774 0.10472914 0.093452744 0.06858947 -0.03412035
-0.0502953 0.028373556 -0.09586892 -0.053909704 -0.12034514 -0.09497754 0.005474284 0.03810676
0.0071862005 -0.057120636 0.102324575 -0.0064918404 -0.10207033 -0.07397156 0.014470387 0.055051703
0.08485984 -0.052537277 -0.027996557 0.11722963 0.028498258 0.007077751 -0.030523293 -0.032818917
-0.023193864 0.018041275 -0.0031002217 0.022799162 -0.11012654 -0.048078995 -0.11775064 -0.0044916947
-0.05861855 -0.028246306 -0.006524652 0.03664565 0.060504206 -0.020290032 0.018946689 -0.007558197
-0.060565613 0.1280242 0.035479754 0.06611988 -0.009977863 -0.04548697 -0.05271206 -0.06771302
-0.011713659 -0.071673065 0.024753349 -0.02511329 -0.042385977 -0.13254596 -0.08107319 0.023887113
0.009099329 0.01955592 0.13651739 0.011588506 -0.0216145 0.080827296 -0.06591653 -0.009303039
0.1127943 0.08338999 -0.0638602 0.08842404 -0.025395442 0.017990954 0.0736793 -0.09766669
-0.119666934 0.09114276 0.022682471 -0.05444686 0.060614675 -0.0724091 -0.012417562 -0.006681095
-0.0032577233 0.007362851 0.10570895 0.058942348 -0.1137735 0.058663424 0.04371464 0.12289456
0.050135892 -0.098992825 0.048611455 0.026619704 0.024360562 -0.011923587 0.045119125 0.111779705
-0.05306825 -0.025960233 0.06963442 -0.012084282 0.10074458 -0.015804434 0.06473352 -0.12297195
-0.011608529 0.030683564 -0.056183256 -0.09804154 0.016202506 -0.028170612 -0.07979871 0.03940199
-0.019660184 -0.05307437 -0.02548875 0.006777956 -0.041584544 0.0070184935 0.08253547 0.014440828

lstm1.bias_ih_l1 f4 [512]
00000000: 905d d7bc b343 7a3c becb 5a3d 9683 cabc
00000010: a4cd a0bd 769c 6dbc 1734 1c3c 8da6 473d
00000020: 0c9f a53d 3531 8d3a af6e 063e 3cda 903c
00000030: 9112 d43d ec2b d7bc 440c 59bc 3a2b 3a3c
00000040: 67e6 7f3c b717 c73c 7010 2e3d 1401 ccbd
00000050: 9721 42bc 0b77 f9bc da06 89bd 0feb 243d
00000060: 4b60 7ebd 5bac 1d3c eac7 113d 40de ab3d
00000070: 51b8 a6bd d8d1 11bc 2305 efbc 33bf 243d
00000080: 9367 103d 775a 96bc 60e0 a13d 9789 a93d
00000090: 1e17 073e 4827 5fbd c8a1 e83c 14b8 d73d
000000a0: 0c34 b6bb daba b9bd e234 1a3d d357 023c
000000b0: 61c9 d7bd 4ef6 243c 4e68 993d f145 373c
000000c0: 163f 573d f387 823d 3d81 243d 2921 d0bd
000000d0: 02c4 863d 73de 6f3d 758a 743c df8a b8bd
000000e0: dbfe 203d a4e3 b43d da87 fa3b 0e08 333c
000000f0: a98d cebc 1f05 133d 94bd 2e3d c2ab faba
00000100: 47db 523d 9a23 0cbd 03bc a53a 68ff 8fbc
00000110: c88a 10bd 8482 973d 6a04 913d 781d 8b3d
00000120: a632 be3c cb8c aebd babe 32bc e7bc 693d
00000130: ba80 ce3d 39bc e43d b140 5ebc 0ecf 2b3d
00000140: a06a d9bb 276e 903d 5d64 d23d 819b 063e
00000150: 5b7d 6e3d a8d9 e3bc 4e51 083d bfa3 2b3d
00000160: 2595 503d 44cf 723d acc9 083d 6eae 3bbc
00000170: 6383 1f3d 51f4 efbb 1186 103c 772d 993d
00000180: b276 13bd a86f fcbc 40ff cd3c 3ca9 cf3d
00000190: 7c50 4cbc baf2 f53c 4025 cc3d 8609 c53d
000001a0: 76f5 17bd 2217 83bd 680a ca3a f4db 333d
000001b0: 2c0d 493c 2e78 3a3c 76e8 2b3c 36d2 e33d
000001c0: 22d4 acbc 4176 9c3d 2125 8dbd a56d fc3d
000001d0: 89c5 eb3d 0b47 dc3d 2cf2 aabc 02a6 33bc
000001e0: a53c bf3c 304d b53a 2b00 af3d b889 6d3c
000001f0: ea2a a13d 96b5 e5bd 4dff 903d dfa8 2d3c
00000200: 91bb ac3d b4fd 913d db1a 95bc 7510 01bc
00000210: c662 a9bd 69e1 7f3d 2fc1 343d 59fc 343d
00000220: 6343 36bb 67b0 ff3c da68 cd3d ef80 64bd
00000230: 0d54 043e bc40 f7bd 6471 673d 55fe a83d
00000240: e59e ed3d 0711 99bb e1d8 2cbd c8c2 e13c
00000250: 4b15 72bc 8bef e73c 7109 83bd f4f1 f7bc
00000260: 4e10 fbbc fd6b 00bd 69c1 43bd 3808 56bc
00000270: f65f 8bbd bacd 213d 7679 84bd a0df 173c
00000280: 1d34 243c c31a e8bb 2f24 f5bc 5cb0 ad3c
00000290: 75a9 bc3d 204a e6bd c6e7 f13d f5dd b33d
000002a0: ce33 00bd 7b2c efbd 3fdd 0dbd 5e52 82bd
000002b0: c926 fabc 5b62 f7bd 2231 a53d 171f 76bd
000002c0: ab3f ba3d 5a5f c5ba 370d 30bd 3e60 a5bd
000002d0: 3a2b 163d 4d11 8f3d b9b6 673d 1c46 8b3c
000002e0: 460b e8bc be36 573b e918 d63c 5799 673d
000002f0: b297 b5bc 48c2 d2bc 0eab 4ebd 2ea8 6bbd
00000300: 2dcb 1ebd 320e bf3d af8e 87bd 53c0 ff3c
00000310: 694f 5abd 1b61 f23b 8fe3 ac3c 5858 873d
00000320: e35d df3d 8d4b 9d3c 90bd c03d bcb1 b1bc
00000330: 76d6 003e 8fa1 b43d 5b9d ca3d b726 cabc
00000340: 75fc 803d e000 1d3d 62a2 a83c 5ea9 35bd
00000350: 5306 8cbd ac2e 613d c3c6 9c3d 60cf c73c
00000360: 4406 303d 0aeb e8bc a9a6 233d 424e 2cbd
00000370: 2f5b 7a3d 3b61 eabd 37b2 9dbd 6bc6 373d
00000380: e8a1 b9bd 3361 d03d 6732 8dbd 7256 813d
00000390: 0c88 9a3d c988 05bd 0e40 dc3d 5c40 103c
000003a0: 90b0 cb3d cf09 f23b 2544 373b b3e4 033e
000003b0: ee0c 973d fd59 babd 379e d7bd bcae 013d
000003c0: 5dcf 033c 9a34 32bc 3c7a dbbd b8c3 083c
000003d0: 8ac9 cf3c 43f4 a93d 5def 063d 170b e5b9
000003e0: e73b 5dbc 521a 1f3d 3b5b d3bc 2d9f a5bd
000003f0: cdd4 073d 1a9a 90bc ed02 033e 7226 81bb
-0.026289731 0.01527493 0.05341696 -0.024720948 -0.07851723 -0.014502635 0.009533904 0.04874282
0.080869764 0.0010772111 0.1312816 0.017682187 0.10355104 -0.02626606 -0.013247553 0.011362845
0.015618897 0.0243033 0.042496145 -0.09961143 -0.011848829 -0.030452272 -0.0669076 0.04026323
-0.06210355 0.009623612 0.035591044 0.08392 -0.08140624 -0.008900128 -0.029177254 0.040221404
0.035255026 -0.018353684 0.07904124 0.08278196 0.13192412 -0.05448082 0.028397456 0.10533157
-0.0055604037 -0.09068842 0.03764809 0.007955509 -0.10536457 0.010068489 0.07490598 0.011186109
0.052550398 0.063735865 0.040162314 -0.10162575 0.06580354 0.058561753 0.014925589 -0.090108626
0.03930555 0.088324815 0.0076455893 0.010927213 -0.025214033 0.035893556 0.042661265 -0.0019124674
0.05147865 -0.03421364 0.0012644533 -0.017577842 -0.035288602 0.07397941 0.0708092 0.0679273
0.02321751 -0.08522948 -0.010909731 0.057064917 0.100831464 0.11168713 -0.013565228 0.04194551
-0.006635025 0.0705226 0.10273049 0.13145258 0.058225017 -0.027813748 0.033280663 0.041904207
0.050923485 0.059279695 0.033395454 -0.0114551615 0.03894366 -0.007322826 0.008821026 0.07479375
-0.03600187 -0.03081496 0.025146127 0.10139701 -0.012470361 0.030022968 0.099680424 0.09620957
-0.037099324 -0.064008966 0.0015414478 0.043910936 0.012271207 0.011381192 0.010492435 0.11124079
-0.021097247 0.07639743 -0.068918474 0.123256005 0.11512286 0.10755738 -0.02086743 -0.010964872
0.023344347 0.0013832208 0.08544954 0.014498167 0.07869513 -0.112162754 0.07079945 0.010599344
0.08434213 0.07128468 -0.018201282 -0.007877459 -0.08270793 0.062470827 0.044129547 0.04418597
-0.0027811162 0.031212045 0.100297645 -0.055787023 0.12922688 -0.12072894 0.056504622 0.08251635
0.11602572 -0.0046712193 -0.04219902 0.0275587 -0.014775584 0.028312465 -0.06398285 -0.03026674
-0.030647423 -0.031352986 -0.047791872 -0.013063483 -0.068054125 0.039502837 -0.06468479 0.009269625
0.01002219 -0.0070832684 -0.02992448 0.021202259 0.09212009 -0.11244607 0.118117854 0.08782569
-0.031299405 -0.11678406 -0.034634825 -0.063633665 -0.030536072 -0.12079307 0.08066012 -0.060088243
0.09094175 -0.0015058324 -0.042981353 -0.08074997 0.036662318 0.06985722 0.056570742 0.017001204
-0.028325688 0.0032839025 0.026134925 0.05654272 -0.02216706 -0.025727406 -0.0504561 -0.057533436
-0.038767982 0.093288794 -0.066190116 0.031219637 -0.053298388 0.00739683 0.021104602 0.06608647
0.10906579 0.019201064 0.09411156 -0.021691196 0.1258181 0.08819877 0.098932944 -0.024676664
0.06298152 0.038330913 0.020585243 -0.044350974 -0.06837144 0.05497615 0.07655098 0.024390876
0.042974725 -0.028432388 0.03995386 -0.04206682 0.061122116 -0.114443265 -0.077000074 0.04486696
-0.09064084 0.10174789 -0.06894379 0.06315316 0.0754548 -0.03260115 0.10754405 0.008804407
0.09945786 0.007386423 0.0027964201 0.1288021 0.07375513 -0.09099195 -0.10528224 0.03166078
0.008045045 -0.010876799 -0.10716674 0.008347444 0.025364656 0.08298542 0.03294312 -0.00043686546
-0.013503051 0.03884346 -0.025800338 -0.08087001 0.033161927 -0.017651606 0.12794085 -0.0039413506
