src/output/model.pth (torch, 938311 bytes, 17 tensors)

lstm1.weight_ih_l0 f4 [512, 11]
00000000: c087 07bc d86c c83d b91c 4a3c 6d8b 893d
00000010: 47f2 773a 5157 573d 5a59 1c3d d5b7 a73b
00000020: d94e 0dbc 01bc 983d 9c75 8fbd ca7e b8ba
00000030: edd6 c9bc 5611 ca39 daea 463d 8b95 bb3b
00000040: 0f6e 80bd 5827 5a3d 9bcf 91bd 7e26 94bd
00000050: 3f4b 1cbd dff6 8b3d 4fa5 8abd a4af 993c
00000060: 25d3 3a3c f1de 6cbd a36a 903d 15bb 963d
00000070: fece 623d 1db2 2dbd 477b 9cbd df6f c4bc
00000080: 06fd c93d 8a29 933d eb6f deba fe88 1a3d
00000090: 2c7c f1bb 76f4 32bd f5b2 6dbd 2062 0c3d
000000a0: 85de c5bd 5aa2 4a3b 0cdb 613d c71a a13d
000000b0: c6d1 72bd f054 86bd 3322 543d 3274 33bd
000000c0: 57d6 d6bc 69e7 65bd 2318 9d3c 1ebf 9cbc
000000d0: 2d31 823d babc 29bd 10b4 813d 316c 683d
000000e0: 8737 993d 6560 91bd 42a9 873d e8df 12bd
000000f0: 57d8 413b 843b 1a3d 839a 8f3d ffda a4bc
00000100: 380e 383c a8fc b1bc af00 71bd dca0 863d
00000110: 5baf c93d b73e abbd bff8 5e3c ff84 73bd
00000120: c20a 3dbd a23b cbbd a3d8 f2bc 001a 0a3d
00000130: 61c0 3dbc eb26 4c3d c385 253b 3652 00bb
00000140: ce03 543d 19f2 343d 52f9 9dbd caac 45bd
00000150: ff97 81bc cccc 953d 632d a2bd 2daf 04bd
00000160: 4516 a73d ea42 ca3c bc8d 2abd 90c7 973d
00000170: 23b6 723d 0bd5 7fbd 20bd 033d 3601 493d
00000180: 95ee 8c3c 6580 67bd 0912 d9bc 3d97 26bb
00000190: 6f62 ce3c fbc4 d03d 1d59 39bc 5199 40bd
000001a0: b825 6cbd 5168 823c 95cd 30bb 7c5f eabc
000001b0: 280a b23d 2572 023d b911 8bbd f384 80bd
000001c0: 4806 41bd 79c4 b0bd 300b 1ebc 75a2 7fbd
000001d0: 8e11 63bd 3051 84bc e13e 48bd dd59 49bd
000001e0: 8d0c 55bd fc17 72bd 4774 52bc e952 8bba
000001f0: c3d0 e8bc 9436 363d 56fc 94bb ece6 89bb
00000200: 45d6 58bd 62fb 43bc 0fd7 1abd 89d4 89bd
00000210: c28c 893b 17bf 15bd d99f 2abd 06de 9abd
00000220: 10a4 6fbd 502a 783d dc8e 193d ad4e 86bd
00000230: 135c 8dbd b05c 7a3d 8962 1cba 0b68 aa3d
00000240: 8946 c7bc 35df 8fbd 9d48 d8bb 51f6 a83d
00000250: 5aef 84bd e8ff 9cbc c548 243d 316c 98bd
00000260: a296 44bc 7a86 ae3d 84b0 a93d 19cc a73d
00000270: 8b03 36bb 7029 8cbd ec68 663d be59 293d
00000280: b4a2 86bc 1753 20bd e5d4 963d 3d5f 5d3d
00000290: 5731 9dbd 439e 083d 76e2 053d edbc 5abd
000002a0: b278 b2bd 7638 113d 9dd0 33bd f2da 693c
000002b0: e37b a93c 5dab b0bd 9f53 4abd 7eb4 9f3c
000002c0: 0c22 6e3d faaa 833c 4aec 7bbc e8d2 84bc
000002d0: e572 2f3d 3d74 863d 0e60 04bc 0c56 cabc
000002e0: e475 cfbc 8489 893d 26fe 343d c6d0 923c
000002f0: 5412 8fbc 690d 043d ebd8 3fbd fe44 8dbd
00000300: f1ad 873d 40b3 b0bd 6e45 bdbc 4986 d3bc
00000310: e24c 5a3d 8c15 ad3d 15a8 70bd a486 903d
00000320: cab4 2ebc 4f85 fc3c 3aaa ad3d b03f 8ebd
00000330: 0adb 9b3c 63b7 78bd 7100 c6bd 07b1 623d
00000340: 9ea6 85bd 8753 abbc 44ae 84bd 7538 363d
00000350: 7072 223d 3002 873c adfc a3bc 9e5d 57bd
00000360: c3d9 47bd 46c7 81bd 636d d43b b3cc 9c3d
00000370: 2bc7 7fbd d067 993c 5c92 9fbd 1539 7cbd
00000380: a48f f03c 9339 853d 3254 643d 2654 923d
00000390: a7be 853d 6043 c13a 33ec 9a3c adfd 743d
000003a0: 95b4 843c 4c17 00bc f653 10bd 49fd 5f3d
000003b0: 80f2 323c 5b23 bebd c186 883d 6e0c 923d
000003c0: 2dcb 9dbd 0c3e 433c 011b bc3d c478 a53d
000003d0: ebe2 24bc 4aec 0d3d 4eaf c13d cf07 2b3d
000003e0: 90dc ea3b 268a 7ebd 12dc bd3c 773f a3bc
000003f0: fa15 61bc 7e45 7ebd fabb a6ba 6891 5fbd
-0.008272111 0.09786385 0.01233595 0.067160465 0.00094584044 0.052573506 0.03817115 0.00511835
-0.008624756 0.07457734 -0.07004854 -0.0014075872 -0.024638617 0.0003854136 0.048563816 0.005724614
-0.06270992 0.053260177 -0.07119676 -0.07233904 -0.038157698 0.06834196 -0.06769811 0.01876051
0.01140288 -0.0578298 0.07051589 0.07359902 0.055373184 -0.04240619 -0.07640701 -0.023979126
0.098627135 0.07185657 -0.001697061 0.037728302 -0.007369539 -0.043690167 -0.058031995 0.034273267
-0.09661583 0.0030919523 0.05514054 0.078664355 -0.059282087 -0.06559169 0.051790427 -0.043811984
-0.026225252 -0.056128893 0.019176548 -0.0191341 0.06357036 -0.04143975 0.06333172 0.056743804
0.07481294 -0.07098464 0.0662408 -0.035858065 0.0029578411 0.037654415 0.07011893 -0.020123957
0.011233859 -0.021726921 -0.058838543 0.0657365 0.098478995 -0.08361571 0.01360911 -0.059453007
-0.046152838 -0.099234834 -0.029644316 0.0337162 -0.011581511 0.049841803 0.002525673 -0.0019580252
0.05176144 0.044176195 -0.0771357 -0.048260488 -0.015819548 0.073144525 -0.07918813 -0.032393623
0.081585445 0.02469011 -0.041639075 0.074111104 0.05925573 -0.062459033 0.032162786 0.04907342
0.017203609 -0.05651893 -0.026497858 -0.0025419735 0.025193421 0.10193821 -0.01131275 -0.047021214
-0.05765316 0.015918883 -0.0026978005 -0.028609984 0.086933434 0.031847138 -0.0679049 -0.06275358
-0.04712513 -0.08631224 -0.009646222 -0.06241079 -0.055436663 -0.016151994 -0.04888809 -0.049157966
-0.052013922 -0.059104905 -0.0128451055 -0.0010629568 -0.028419858 0.044485644 -0.0045466824 -0.0042084362
-0.05293872 -0.01196179 -0.037802752 -0.06729991 0.004197688 -0.03655919 -0.04165635 -0.07561879
-0.05850607 0.060587227 0.037489757 -0.06557975 -0.069023274 0.06112355 -0.00059656106 0.08320626
-0.024325626 -0.07024995 -0.006600453 0.08250106 -0.06490965 -0.019164994 0.04010846 -0.07442511
-0.011998804 0.08521743 0.08285621 0.081932254 -0.0027773108 -0.06843841 0.056252405 0.04134535
-0.016435005 -0.03914174 0.07364825 0.054045904 -0.076754265 0.033354055 0.032686673 -0.05340283
-0.08714427 0.035454236 -0.04390012 0.014273392 0.020688957 -0.08626435 -0.049396154 0.019495245
0.05813794 0.016072739 -0.01537616 -0.01621385 0.04283418 0.065651394 -0.008079542 -0.024699233
-0.02532477 0.06715682 0.044187687 0.017921817 -0.017464794 0.03223935 -0.04683773 -0.06897925
0.066249736 -0.08627939 -0.023104396 -0.025820868 0.053295977 0.08451375 -0.058754046 0.07056931
-0.010663221 0.030825285 0.08479734 -0.06945741 0.019025344 -0.060721766 -0.09668053 0.055344608
-0.0652592 -0.020913852 -0.06478551 0.044487435 0.039659917 0.016480535 -0.020017946 -0.052579515
-0.048791658 -0.063368365 0.0064827665 0.07656231 -0.0624458 0.01872626 -0.07791588 -0.061577875
0.029365368 0.06505122 0.055744357 0.07144956 0.06530505 0.0014744811 0.018911457 0.059812237
0.01619939 -0.007818054 -0.03523632 0.05468491 0.010922074 -0.09284087 0.06666327 0.07131277
-0.07704768 0.011916649 0.09184838 0.08079675 -0.010063867 0.03464917 0.09457265 0.041755494
0.0071674064 -0.062143467 0.023176227 -0.019927723 -0.01373815 -0.06207799 -0.0012720816 -0.05458203

lstm1.weight_hh_l0 f4 [512, 128]
00000000: 7ce9 8a3d 6e1c a93d f873 403d ac14 0cbd
00000010: 1d61 36bd ac89 a23d 7488 24bc cf1e 77bb
00000020: f821 4a3d bc23 093d 9f9d 4fbd c38c 37bd
00000030: ca2a b53a 4e9f 713c 0dec e8bc a919 7f3d
00000040: fbf0 063d 6e34 b5bd 1cce 5c3d 6810 b8bc
00000050: 45dc 04bb bc4f 2dbd c6c8 923d dd42 4c3d
00000060: 5348 b03c 0310 16bd e128 f73b 4f6b f33c
00000070: bbc0 c43d 87d3 583d 8695 7f3d 56ec 6d3d
00000080: 5b8a 9b3c c79a 033d 365c 5fbd d61c 27bd
00000090: 1e8f ca39 7177 e7bc 9d1f 54bd 5335 273d
000000a0: a1e4 7a3d 1245 8dbd 84ef efbc 0e50 c7bd
000000b0: cbb9 93bc ee61 853d 891f 74bc 1ae3 903d
000000c0: 227f 983d 1af0 7a3b 098c 743d a286 51bd
000000d0: addf a6bd 3c8e d5bb 1ca9 683c 20d2 9b3d
000000e0: f373 d1bd a7c0 9e3c fd6c 90bb ddf4 933d
000000f0: fdfd 25bc 9299 d4bc bb28 a4bd 9a61 bebd
00000100: dfc6 76bd eb79 cfbd 3b5f 73bd a001 29bd
00000110: 73e3 ae3d 3dee 7f3d 86b4 89bd d272 cd3c
00000120: 6e94 bdbd 72fd 073d ffa7 edbc 0ce3 2e3d
00000130: f441 1b3c 1023 933d a5b9 4cbd f836 33bd
00000140: c877 823d 4c76 d8bb 8ece 92bd bd83 8e3d
00000150: 5c85 b5bd 3253 a33c eafa 25bd 2624 8b3d
00000160: e4f3 8c3d 6608 c63d 74f5 b93d 1459 e4bc
00000170: 6cb1 c43c 5eb5 f0bc f324 7abd 29f9 563b
00000180: 055d 223d 16ca 15bc 3577 753c 464f 523d
00000190: 4a9c 83bc 9d01 5e3d d0de 593d 1ef6 62bd
000001a0: d192 963d 6567 913d b588 4a3d f2ee 48bd
000001b0: b889 0f3d 8fb9 653d 7e09 94bd 127b 823d
000001c0: d11f 3abb f790 adbc d94c f13a 473b f43c
000001d0: 84a4 15bd 0d71 163d f191 903d 6e4a 83bd
000001e0: b0bc 81bd 8aac 06bd 5623 b8bd 2316 313d
000001f0: 4564 80bd cb43 503c 276c dc3d 19bc a4bd
00000200: 15b9 70bc 17d5 cabb 87e2 dd3c c5e4 513d
00000210: d25b 423d fa0a 47bd 837e 803d 4dc3 9a3a
00000220: bb9f 803b 9f39 11bd e215 0ebd 7853 d53d
00000230: 6e4b 4b3d 2f32 ab3d ae8a c1bd a1cf 8239
00000240: 41b0 bc3d ba3c d63b a467 cb3d 9492 cfba
00000250: 33c7 1a3d 7235 17bd 38a3 c43d f7bb cf3c
00000260: e4a9 333d 8a1d 4bbd 84ec 15bb 9b53 6a3c
00000270: 9cd5 28bd aade 023c 40ce e53c a2bb 443d
00000280: 3091 cdbd 77ae 01bd a1cc 433d 8a8d 92bd
00000290: 140b 93bd ae97 c13c 234b 6f3d 6e08 aabc
000002a0: 5de5 7e3c 7fc0 7ebd 471d 90bd 6f6e 6c3d
000002b0: 4042 783d 1089 89bc 22d2 243b 8a30 7c3d
000002c0: 6ce3 76bd 1e60 b13d 5187 673d f3c9 63bd
000002d0: 99d4 5e3d 41d5 1c3b b8cc 4e3c 612b 283d
000002e0: 4990 433d ed1e 443d 2ac7 913d 7f97 67bd
000002f0: c65b b33d 2557 58bc 950f 1ebd 3c6a cdbc
00000300: f141 9c3d 8096 94bd dac3 a43d 9abf 583d
00000310: 4184 81bd e49e 113d 2f4f 08bd c9fc c4bd
00000320: 5643 3ebd 4891 d9bb 4525 a7bd c888 9c3d
00000330: 014d abbd e0fb ccba 3705 97bd 0e5f 38bd
00000340: 9129 a4bd b315 ddbc 0cf0 c6bd cdf6 7abc
00000350: 7d97 91bd eebe 293d 2d09 cdbd 3711 38bd
00000360: 0225 8bbd 3d25 9dba a94c d13d 7cad 0e3c
00000370: 237a 543d 7235 28bc 8ab9 033c 57d1 57bd
00000380: 67f3 79bd ae91 89bd 2161 2d3d 4ee0 b5bc
00000390: 682f 873d c3b2 33bd bec2 8abd b394 98bd
000003a0: 4b85 5abd 030e 4cbc 61ce 9b3c d53b b1bd
000003b0: ffad d93c d9d1 04bd 2934 97bc f1c0 4dbd
000003c0: 9c2d 42ba 3651 373d 5590 413d 02a7 9fbd
000003d0: 8ba4 1ebd ad1f d8bd 82ed cf3d fb68 403d
000003e0: 7160 49bd 07b6 bd3d 4b53 8ebd 5baa 79bd
000003f0: f4aa 5d3d d416 3abd 60e6 09bd 5ab1 25bd
0.06782815 0.08257376 0.046985596 -0.0341994 -0.04452621 0.07936415 -0.010042299 -0.0037707572
0.0493488 0.033481345 -0.05068743 -0.044811975 0.0013821956 0.014747454 -0.02843287 0.06228033
0.03294466 -0.08847891 0.0539075 -0.02246876 -0.0020272892 -0.04231237 0.07167201 0.049868453
0.021518862 -0.036636364 0.007542715 0.029714255 0.09607073 0.052936103 0.062398456 0.058086716
0.018986871 0.03213003 -0.0545313 -0.040798984 0.00038635073 -0.028255196 -0.05178796 0.04082234
0.061253194 -0.0689794 -0.029289015 -0.09732066 -0.018032929 0.06512819 -0.014900097 0.07074566
0.07446124 0.0038290084 0.05970386 -0.051153786 -0.081481315 -0.0065172 0.014200475 0.076084375
-0.10227194 0.019378973 -0.0044075237 0.07224438 -0.010131356 -0.025952134 -0.08015581 -0.0929596
-0.060248252 -0.10130676 -0.05941699 -0.041261315 0.08539476 0.06248306 -0.06723885 0.025079165
-0.09256826 0.03320069 -0.02901077 0.042696998 0.009476174 0.07184422 -0.049981732 -0.043753594
0.06370503 -0.006605899 -0.071683034 0.06958721 -0.08863327 0.019937132 -0.040522493 0.06794004
0.06882456 0.096695706 0.090800196 -0.027874507 0.024010383 -0.029383358 -0.061070394 0.003280232
0.03963949 -0.009142419 0.014982034 0.051345132 -0.016065735 0.054200757 0.053191006 -0.055410497
0.07352222 0.07099799 0.04944678 -0.049056 0.03504345 0.056085166 -0.07228373 0.0637113
-0.0028400312 -0.021187289 0.0018409743 0.029813422 -0.036533847 0.036728907 0.07059086 -0.06410681
-0.063348174 -0.03287939 -0.08991115 0.043234 -0.06269125 0.012711476 0.10762816 -0.08043689
-0.0146925645 -0.006189953 0.027085556 0.051243562 0.047450848 -0.048594452 0.0627413 0.0011807472
0.0039252914 -0.035455342 -0.034688838 0.10416311 0.049632482 0.08359181 -0.09450279 0.00024950228
0.09213305 0.006538001 0.09931877 -0.001583653 0.037787627 -0.036916204 0.09601444 0.025358183
0.043863192 -0.049588718 -0.002287657 0.01430216 -0.04121934 0.007987658 0.02805245 0.048030503
-0.10037458 -0.031660523 0.04780257 -0.07155903 -0.07179847 0.023631897 0.058421265 -0.020755973
0.015557614 -0.062195297 -0.07036834 0.057722505 0.060610056 -0.01678899 0.0025149663 0.061569728
-0.06027548 0.08660911 0.056525532 -0.055612516 0.054401968 0.002393082 0.012622051 0.041056994
0.047745023 0.047881056 0.07118066 -0.056540962 0.08757739 -0.013204371 -0.03858908 -0.02507507
0.07629765 -0.07255268 0.08045168 0.0529171 -0.063240536 0.03555192 -0.03327864 -0.096185274
-0.046450935 -0.0066396333 -0.081614055 0.076432765 -0.08364297 -0.001563903 -0.073740415 -0.045012526
-0.08015741 -0.026987886 -0.09713754 -0.015317631 -0.07108972 0.04144185 -0.10011516 -0.044938292
-0.06794168 -0.0011989247 0.102197 0.008708354 0.05187429 -0.010266649 0.008039841 -0.052689876
-0.061023142 -0.06717239 0.042328957 -0.022201683 0.06600839 -0.043871652 -0.067754254 -0.07450237
-0.053349774 -0.0124545125 0.019019308 -0.0865399 0.026572226 -0.03242669 -0.01845749 -0.05023283
-0.0007407309 0.044755183 0.047256786 -0.07795526 -0.03873114 -0.10552917 0.10152723 0.046975117
-0.04916424 0.092632346 -0.069494806 -0.06095348 0.05411811 -0.045431927 -0.03366697 -0.04045234

lstm1.bias_ih_l0 f4 [512]
00000000: 59ea 873d eb6f 7fbd a01f 69bc 859e 57bd
00000010: 999d c43d d277 7f3d 6372 153b 7672 863d
00000020: 6e7d 00bd eaf0 38bb cc0b ae3d cdb5 983a
00000030: 1f3d b73d 524d 143d f22a 0dbd 59d7 3ebd
00000040: b9bb 94bd c8b6 873d 24f7 26bd 81e1 a73d
00000050: ddbf 6ebd a444 e8bc 5f42 83bc a1a8 a73d
00000060: 3271 823d 5dc6 8a3d 812a bbbc 3692 453d
00000070: 0ae1 953d e253 cebc 55bd b83d 1da7 453c
00000080: b642 41bd bd4c fbbc c456 9abd f943 92bd
00000090: 0dde 5dbd b336 953c eed8 52bd 6f82 a43d
000000a0: 6066 963d 73ea 663d e988 3d3d 2f53 b43c
000000b0: 65fb 38bb 4c39 26bc f320 98bc 643d cd3c
000000c0: 0a14 07bd db39 a93d 5c16 40bd ec49 bf3b
000000d0: 4641 afbb e811 a6bd 7788 13bd f678 ac3d
000000e0: 85a4 053d 1917 8f3d 96f7 9f3d 8b01 05bd
000000f0: c56b 1cbd 6423 a5bc 0f48 eebc b89d 823b
00000100: 60b1 443c 0ce6 56bd 0049 51bd 8704 c33d
00000110: 18b7 593d 3bfe 163d 7856 6bbd 0327 b43d
00000120: 7263 24bd ceff ed3c 7698 90bd 768b 7bbd
00000130: 7a84 68bd 429f 57bd a782 c83d 3237 7abd
00000140: 2d4f 823d 1ad4 843d 821a aa3d caa0 bf3d
00000150: 1033 02bb 77a1 353d 3f21 2cbd 0d76 59bd
00000160: 5d41 3ebd afcb 5f3c c149 87bd d4f4 8aba
00000170: 278c f93c 97b3 c93d 6f7f ac3d bb0a 823c
00000180: 903e 66bd ee0b f43c 0a94 aa3d f0ad fabb
00000190: 5afc c03d 955e 31bd 327c 0d3d dea9 0fbd
000001a0: ff86 80bc 6ae7 463d 7103 5abd 1f04 a23d
000001b0: 235a 873d 4711 74bd 57eb 103d 3397 d23c
000001c0: e41f 78bc 8f44 5abd d071 bc3d ec0e c13d
000001d0: 604a 18bb 35ef e4bc c3a5 203d 5fe8 8bbd
000001e0: 74ec 413d 8099 dfbc c39e 8cbd 23f2 933c
000001f0: 1322 fabc e37b c93d 347f 873d 4094 973d
00000200: 1e05 663d 696e 863d 92cc 393d e25b a53c
00000210: 4329 cfbc 69c4 093d 0859 b43c 2e8e 18bc
00000220: 9728 c6bb 63ff 8ebd 94aa af3d 001f 9bbd
00000230: 89ef 8b3c 32db 68bd 67dc 0ebb c5d3 a03d
00000240: 98d0 37bd 0964 713d a199 1b3c 4c64 323d
00000250: 19e5 053d be76 6b3c 6299 bc3d 31a0 83bd
00000260: 0f01 37bd edb9 2e3d 994d 8b3d 8b26 cb3c
00000270: 0084 61bb c1b8 f4bc 06c3 b03d 93f5 0b3b
00000280: 6dad 66bd 5aee 283d bba6 b8bb c457 d63b
00000290: 95c6 c53b 6489 9fbd 06a0 753d 461f c53d
000002a0: d8c6 97bb 1a6c 6e3d 8a55 433c 4203 793c
000002b0: 8f7d 45bc 4470 953d fc17 753c 8c89 1a3d
000002c0: 3b6d fa3b fe7e 2e3d 0d6e cb3b 37ec 86bd
000002d0: 80ec a13d c1df d2bb 6f6d 8bbd 374b 9d3d
000002e0: b6a4 a53d 3c30 cc3d 8b50 4a3d 3746 843d
000002f0: 08e9 ba3d 739f 1dbd 38d7 7abd 330c b33d
00000300: 7b71 bb3d 6b11 9fbd 41c7 54bd e23a 03bc
00000310: 0cdb 723d 1285 29bd e4ae 0d3d 556a 143d
00000320: e897 8d3c 854f ab3d 15d6 11bd 1395 303d
00000330: c9b5 6e3d a28f 963d f639 23b9 9ff1 c33d
00000340: 7b5b 823d def2 073d 4089 9e3c 480b 83bd
00000350: 7a5e 563c ca16 ae3d 0248 833c c3f4 a8bc
00000360: a210 8dbd 24a5 013b 1273 c03d 4817 0cbd
00000370: 9fe7 67bd c690 7dbd 390f 413d d7b4 a93d
00000380: 4744 a7bc 9c8e 313d 69fb da3c 65ff 7c3c
00000390: 8ec9 903d 7b80 a73c bba4 923d 015a 52bd
000003a0: 4b7d bf3d 42b5 893c 7bd9 b2bb 7a0c a93d
000003b0: f72b c13d a27f 4c3d 311a 79bd b37f 3abd
000003c0: 4bff 5c3c c7d3 abbb 8a6a c2bb a1e8 333d
000003d0: ba04 6e3d e8b4 a43d c3da 513d 8cab d73a
000003e0: 521f 4cbd 2c74 463d 5cc5 19bd f66e 34bd
000003f0: 2c4c 2dbd e775 79bd 8752 b23c 06e5 d4bc
0.06636495 -0.062362593 -0.014228731 -0.05264141 0.09600372 0.06237013 0.0022803776 0.065648004
-0.03136962 -0.0028219768 0.08498344 0.001165086 0.08947205 0.03620655 -0.034464784 -0.04659209
-0.07262368 0.0662666 -0.040763035 0.08197308 -0.058288444 -0.028353043 -0.01602286 0.0818646
0.063692465 0.06776116 -0.022847416 0.04823514 0.073183134 -0.025186483 0.09020487 0.012063769
-0.04718276 -0.03067624 -0.075360805 -0.07141871 -0.054166842 0.01821456 -0.05147641 0.08032691
0.07343745 0.056375932 0.046273146 0.022012321 -0.0028226015 -0.010145497 -0.018570399 0.025053687
-0.032978095 0.08262988 -0.046896324 0.0058376696 -0.0053483574 -0.08108884 -0.036018815 0.08421509
0.0326276 0.069868274 0.07810895 -0.032472175 -0.038188715 -0.020158477 -0.029087095 0.0039860867
0.01200518 -0.052465484 -0.05109501 0.09522348 0.053153127 0.036863547 -0.05745551 0.087965034
-0.0401339 0.029052641 -0.070603296 -0.061412297 -0.056766964 -0.052642114 0.09790545 -0.061087795
0.06362758 0.06485768 0.08305837 0.0935684 -0.0019866861 0.044343438 -0.042023893 -0.053091098
-0.046449054 0.013659402 -0.06605864 -0.0010601529 0.030462338 0.09848707 0.084227435 0.015874257
-0.056212008 0.029790845 0.083290175 -0.0076501295 0.09423132 -0.04330309 0.03454227 -0.035074107
-0.015689371 0.048560537 -0.05322594 0.07910942 0.06608989 -0.05958679 0.035380688 0.025706863
-0.015144322 -0.05328804 0.092013955 0.09426674 -0.002323769 -0.027946094 0.039220583 -0.06831431
0.04734464 -0.027294874 -0.06866219 0.018059796 -0.030533826 0.09838083 0.06616059 0.07401323
0.056157224 0.06564028 0.04536111 0.020185415 -0.02528823 0.033634577 0.02201511 -0.009311242
-0.006047319 -0.06982305 0.08577457 -0.07574272 0.017081993 -0.056849666 -0.002179885 0.07852892
-0.044876665 0.05893329 0.009497077 0.04355268 0.032689188 0.014371572 0.09208943 -0.064270385
-0.044678744 0.04265778 0.0680191 0.024798652 -0.0034410954 -0.029873254 0.08630948 0.002135609
-0.056317735 0.041242935 -0.00563511 0.006541224 0.0060356357 -0.07789877 0.059967063 0.096251056
-0.0046318583 0.058208562 0.01192225 0.015198531 -0.012053861 0.072968036 0.014959332 0.03772883
0.007642416 0.042601578 0.0062081874 -0.06588023 0.07906437 -0.006435365 -0.06807982 0.07680362
0.08088057 0.099701375 0.049393218 0.06458705 0.091264784 -0.03848214 -0.061240405 0.08742561
0.09152504 -0.07766994 -0.051947836 -0.008009644 0.05929093 -0.04138667 0.034590617 0.03623422
0.017284349 0.083647765 -0.035604555 0.04311092 0.058278833 0.073516145 -0.00015566483 0.0956757
0.06365105 0.0331906 0.019352555 -0.06398636 0.013084048 0.085004404 0.016025547 -0.020624524
-0.06887938 0.001978227 0.09396948 -0.03420189 -0.056617375 -0.061905645 0.047133658 0.082864456
-0.0204183 0.043348894 0.02673121 0.01544175 0.070696935 0.020447006 0.07160326 -0.051355366
0.093500696 0.016810063 -0.0054580546 0.08254333 0.09432214 0.049926408 -0.060815994 -0.04553194
0.013488601 -0.0052437517 -0.0059331106 0.043923024 0.058109976 0.08042318 0.051234018 0.0016454323
-0.049834557 0.048450634 -0.037541732 -0.044051133 -0.04230897 -0.060903456 0.021767868 -0.025988113

lstm1.bias_hh_l0 f4 [512]
00000000: 32f1 a33d 2935 bb3d 5d58 503d 1c8f 1c3d
00000010: 3247 9d3d 8a1c 64bd 3c1e 8d3d f5e1 79bd
00000020: c773 bc3d 76d7 863c 8714 8f3d d9a5 6fbd
00000030: dd4b b93c 2b26 8dbd e7c0 823d 30b0 77bd
00000040: 9b5d 1fbd dd4e 983a a0d6 ecbc f6f8 0d3d
00000050: 617d 93bd 6db7 c33d e691 bf3d 129e 443d
00000060: 41f6 613d 0807 263d 6eb5 2abd 4681 ea3b
00000070: 9cf4 b43c 22c3 123d b7fc 13bd ef91 44bd
00000080: fc1a 4b3c 98fc 38bd 4c3d 6f3d de57 4b3c
00000090: 7654 2dbd 5542 93bd 37f6 3b3d 129d b63c
000000a0: 3a4e 72bd b281 1ebd 6c5e 9e3d adc5 ad3c
000000b0: be8d f0bc 0cbd 6f3d 69c7 833d c05d 1ebd
000000c0: 1858 19bd df39 2dbd f1ce e6bc 1035 423d
000000d0: b7c8 83bd ed82 b3bd 91f1 693d 95e4 903b
000000e0: 213e 4cbc 62a2 8e3b 65d4 09bd ef8e 0e3d
000000f0: 84f5 383c 7c1a 873d 3191 703c 42c1 2fbb
00000100: ff52 a73d 16d1 18bd 7f2c 053c b2f3 6abc
00000110: df08 ed3c 5cc0 0a3c 13a4 59bd 864e 463c
00000120: 5b1c ffbc 68b2 bc3c f106 693d f84b b8bc
00000130: 47bb d13a 0d1c 4fbd 82df 36bd 62d3 9c3c
00000140: 1e3a 773b 7bbb 283d a8e2 b03d 4d48 9f3d
00000150: 6871 91bd 2a5e 94bd 693b 093c f8f4 853d
00000160: da00 6ebd bdca 773d cc90 ce3c ede5 ab3d
00000170: 9b70 c33b 55b4 d93c c5dc 87bd 6aec 70bd
00000180: a637 983d e5df 703d 1ce2 cd3d 2891 47bc
00000190: 440d 0fbd 641e 793d a1f5 98bd 459a cf3d
000001a0: 16a2 0ebd 81d9 cdbc 62e7 51bc 3bfb ce3d
000001b0: 66b0 e63c 9ed1 373d 641b 9abb 7166 4bbd
000001c0: 59d5 27bc 0922 3fbd 6517 adba fcb4 243d
000001d0: 2603 a53c 7a13 d13d 818b 1f3d 95f1 903d
000001e0: b5c5 c63d 21a7 d33d 573f 5cbd 3b57 37bd
000001f0: 8dd5 1abb 4aca 1c3d 4fe6 7d3d d816 fd3c
00000200: 08b3 833d 14eb 103d c455 78bc 4446 27bd
00000210: b3fc cc3d bd0a 48bc 39c6 c83d 5cd4 063d
00000220: f0f7 1e3d dd7c 73bd 6830 883d 7307 8d3c
00000230: c3e5 31bd 6625 cd3d 011d b33d 931c cb3d
00000240: 52fc 423d ee33 283d cef0 a53d 9cd3 ab3d
00000250: 3f2d 853d b177 c33d 594c 52bd 101d 9abc
00000260: 0806 753b 0ac8 db3c 5963 863d 4c4c 0b3d
00000270: f8fe 8ebc b70a 21bd c8c3 32bc 84e4 663a
00000280: fd5e 53bd 65ab 173d 48c5 3dbd a09a bb3b
00000290: 40b3 97bd cb00 b63d 9399 d33b ad6d 183d
000002a0: 0af1 48bd 82c5 eb3c aa67 8d3d 373c e4bc
000002b0: 90f4 823d eaf1 013d 4a26 6dbd ed70 923c
000002c0: 8b7f 823d 3e86 0dbb 90d6 9f3c c2fc 16bd
000002d0: 6051 c13d a91f 183d a499 babc 1537 99bd
000002e0: 2bd0 93bd 4fff 6a3d 74da 7e3d 4ab6 b0bd
000002f0: bbfd eebc acda 7bbd 0513 b03d 3c5d 393b
00000300: 89ac 3a3d 045e 5e3c bfbd ee3c 6b09 853d
00000310: 1c51 823d f9ae a33d 582d 923d 7c32 ab3c
00000320: a685 6abd 58cd 11bd c2a5 71bd 7688 51bd
00000330: 9d56 a5bc c398 b83d e3ff 573d f17a ae3d
00000340: 3dc9 b73d 5e88 7fbc 1067 0a3d aefc 6f3d
00000350: 11bd ad3d b6d8 7cbd 56f0 6fbb 2165 94bc
00000360: 36b9 a33d 5574 14bc 728e 95bd f99a 80bb
00000370: 50d1 a43c 078f 70bd 1a83 8ebd 269b c1bc
00000380: a7da 1b3d abd6 95bd 3f1e 313d 6fa4 073d
00000390: 210c 283d 2888 d4ba ecf4 93bb a398 223d
000003a0: 9b8d f3bb 4d4d 943d b5a0 a13d 5810 ec3c
000003b0: 4d74 403d 9327 aa3d e76e 603d d25c 1d3d
000003c0: 76ff 9f3d ebf5 1fbd 753a 173d 665f f9bc
000003d0: 23df 8a3d ba0d 10bc 5a87 7abc e9e5 863d
000003e0: 51d4 bd3c cea1 b33d 1567 6c3a 6d35 b439
000003f0: 852e a73d dfde 68bd 8e29 c5bc 0b8c 87bd
0.08004989 0.09140999 0.05086552 0.038222417 0.07679595 -0.05569128 0.068905324 -0.061006505
0.0920177 0.016460162 0.06986337 -0.058507774 0.022619182 -0.068920456 0.063844495 -0.06047076
-0.03890763 0.0011620183 -0.028910935 0.034661256 -0.072016485 0.0955647 0.09354 0.04800231
0.055166487 0.04053405 -0.04167693 0.007156524 0.022089295 0.035830624 -0.03612968 -0.047990736
0.01239657 -0.045162767 0.058408067 0.012411086 -0.042316876 -0.07190386 0.045889106 0.022291694
-0.059156634 -0.038697906 0.07732853 0.021212423 -0.029364463 0.0585299 0.06434519 -0.038663626
-0.03743753 -0.04229152 -0.02817485 0.047413886 -0.06434768 -0.087652065 0.05711514 0.0044217804
-0.012465985 0.0043528536 -0.03364982 0.03480428 0.011289004 0.06596848 0.014683054 -0.0026818071
0.08170127 -0.037308775 0.0081282845 -0.014340328 0.028934894 0.008468714 -0.05313499 0.012103682
-0.03114145 0.02303429 0.056891385 -0.022497162 0.0016001248 -0.05056386 -0.044646747 0.019143764
0.003772385 0.04119442 0.08636981 0.07777462 -0.07101709 -0.07244523 0.008375981 0.06540865
-0.05810628 0.06049608 0.025215529 0.08393464 0.0059643514 0.026575247 -0.06633905 -0.058819212
0.07432489 0.058807272 0.100528926 -0.012180604 -0.03492476 0.06082 -0.07468725 0.101368465
-0.034822546 -0.025128128 -0.012811514 0.10106512 0.028160285 0.04487764 -0.0047029722 -0.049658243
-0.010243737 -0.046663318 -0.0013205825 0.040211663 0.020143103 0.10208793 0.0389514 0.07077328
0.097056784 0.10334612 -0.053771343 -0.044760924 -0.0023625821 0.038278855 0.061987218 0.030894682
0.06430632 0.035380438 -0.015157167 -0.040838495 0.10009136 -0.012209591 0.09803433 0.032917365
0.03881067 -0.05944525 0.06649858 0.017215466 -0.04343201 0.10016899 0.087457664 0.099175595
0.047603913 0.04106515 0.081025705 0.08389971 0.06502771 0.09544314 -0.051342342 -0.018812686
0.0037387628 0.026828784 0.06561918 0.03400831 -0.017455563 -0.03931686 -0.010910936 0.0008807855
-0.05160426 0.03702869 -0.04633072 0.00572522 -0.07407236 0.0888687 0.0064575165 0.03721397
-0.049057998 0.028780703 0.06904538 -0.027860744 0.06394303 0.031724848 -0.057897843 0.017876113
0.06371983 -0.0021594907 0.019511491 -0.036862142 0.09439349 0.03713957 -0.02277834 -0.07481209
-0.07217439 0.057372387 0.062220052 -0.08628519 -0.029173722 -0.06148784 0.08597378 0.0028284332
0.0455747 0.01357222 0.029143212 0.06495937 0.06363127 0.07992358 0.07137555 0.020898096
-0.057256363 -0.03559622 -0.05899597 -0.05115553 -0.020182902 0.09013512 0.052734267 0.08519543
0.0897393 -0.015596477 0.033789694 0.058590584 0.08483327 -0.06173011 -0.0036611757 -0.018114628
0.079943106 -0.009060939 -0.0730256 -0.003924724 0.02011934 -0.05873015 -0.069585994 -0.02363355
0.03805032 -0.07316335 0.043241736 0.0331158 0.041027192 -0.0016214894 -0.004515281 0.039696347
-0.007432652 0.072413065 0.078919806 0.028816387 0.046985913 0.083083294 0.054793265 0.0384186
0.07812397 -0.039052885 0.036920983 -0.030440997 0.06780841 -0.008792335 -0.015291059 0.06586821
0.02317253 0.08771096 0.0009018046 0.0003437208 0.0816317 -0.05685317 -0.024067666 -0.06618508

lstm1.weight_ih_l1 f4 [512, 128]
00000000: c6be fabc 2d3c d33a 666e 463c 0b23 06bd
00000010: 007a 64bd 527f 0abd bc69 2cbd f855 e5bc
00000020: fabc b73c f528 f63b b888 7d3c e8e8 263d
00000030: f8c4 4bbc 34da 6fbd 50e3 a83d dfef 993b
00000040: 2f91 953c 21b8 b23c 85aa 753d 13e3 833d
00000050: 4c62 e5bc de59 b03d 9089 9c3d 6dfb d1bc
00000060: e79f 2cbd 6a93 babc 8e85 883d 8395 6a3d
00000070: 33f3 403b c986 a63d 4506 c6bc ca2e 3cbc
00000080: 72c0 33bd c604 4ebd 19d4 d8bc b877 863d
00000090: 2528 863d 4407 373d 9352 283d 7454 853c
000000a0: 93ba 70bc c506 a03d 98f7 a83c 66fc 63bd
000000b0: 28ef b83d d0ec aa3d b9a4 1abd 9383 ed3c
000000c0: d172 9bbd 1a4d a4bd e8f5 8f3c 8541 203d
000000d0: 9d83 763c d22b 033d ea20 d4bb 8bdb 6cbd
000000e0: 1861 953d 76b9 503d 0686 c93a 8e9d 1c3c
000000f0: 971a 9cbd 8bdc a93d 1952 543d 85b3 333d
00000100: f407 47bd 6b84 343d 7073 98bd c318 5c3d
00000110: 19de f6bc dac2 29bd 6eb4 a7bd d8e8 e53c
00000120: 186d 563b 57c1 fa3c 3943 f03c 501a 9f3d
00000130: a1ca 30bd cfb8 b0bc 5e8e 913d 812d 45bd
00000140: aebd 37bd 2302 1c3d 1d03 81bd f5c4 a03d
00000150: 1c52 70bd 0402 633d 3758 f13c 8e01 92bd
00000160: 9bc7 f1b9 4e66 8b3b 34e3 3a3d 4713 853d
00000170: aa02 60bd 737b 32bd 0cd7 53bc 39d0 b03d
00000180: b1fa 9cbd 887f abbd f38e a33d e7b9 563d
00000190: 48ed c33b 4475 acbd ceec 263d c659 a43c
000001a0: fa61 27bd 9cff 80bd 4b9b 98bc 849e ca3c
000001b0: cd56 84bd ac69 aabd 08b8 32ba 7bdc 27bd
000001c0: 29cd 893d 95e5 83bd 97ee 2e3d e7a4 43bd
000001d0: 7ed9 9bbd ee99 b3bd 9975 9cbd c9fe 01bd
000001e0: 8901 97bd 3cde 4f3d 75e5 a23d 0e5d 06bd
000001f0: 7f88 1e3d 2a40 383c 3a95 98bd 711a b9bd
00000200: f4b8 7e3d 4b16 ca3c 50b5 0bbc 4f8e c6bd
00000210: 581e 19bd 6e12 bebc 236d c43d 94ae 20bd
00000220: debf a93c 301a 413d 255e a3bd 5b12 0abd
00000230: 13f7 893d 69ac b53d b61b 5e3d d7a9 103d
00000240: 696f 6dbd 367a bc3c 32b8 5e3d 0b9e 8f3d
00000250: 15ab 18bd ea9c dcbc 0380 b73d ce69 b13b
00000260: ff86 0bbd 484e a4bd eabd 2abd a478 92bd
00000270: 3bdb 693d 8dd3 abbc c9af 1ebd 2e43 03bd
00000280: 3956 0fbd d12a 42bd 2465 4bbb 5cf0 e0bb
00000290: 2076 95bd c15b 823c b795 963d c28e 4dbd
000002a0: e876 dcbc 241b 2e3d aedd 98bc 9c8f cdbc
000002b0: 026f f13c 1b23 65bd d5db 803c 8d87 863d
000002c0: d231 16bd 39c2 ba3d f4ab dbbc bf38 14bd
000002d0: 2443 19bd 61e0 92bc 17ce 363c a262 3ebd
000002e0: 87b9 a8bc 635a 093d 3fad 91bd 0dec 0abd
000002f0: 0cb2 5abd f740 683c c4c8 883c 6993 2f3c
00000300: d827 6f3d 02d7 91bd 01ff a63c 71b4 9abd
00000310: 0ff9 033d 2195 cd3c 3aa5 5d3d fc6d 283d
00000320: 5626 a93d 2889 6d3d 8eea 92bc 1ede a1bd
00000330: 3ea7 35bd 1279 423d f90e 093d a43b 993c
00000340: 76f7 563d 193d 343d 9a7a 78bc c8a1 933d
00000350: 6268 8fbd 245d 97bd af68 09bd 47eb acbc
00000360: e922 6abb 31cf 19bc 2757 7d3d 909c 173c
00000370: b52d e83c fa11 f03c 78b4 943d 1d41 2fbd
00000380: 52d9 313c c586 0a3d 85c8 633d 9664 b4bd
00000390: f0e6 543d aa8f 8ebc 2276 1b3d 9bec 643d
000003a0: c0a8 8abc c702 58bd ee95 85bd 7942 c93c
000003b0: ebbd 9b3d 8e60 2e3d af22 043d 91ec 0a3d
000003c0: a967 b73d 5410 6ebd cc69 eb3c d890 053d
000003d0: 3d4e b73c d749 b7bd 844f 85bd 6db6 2a3d
000003e0: 97c5 8dbd aa0b 533d 0278 4a3b 25b0 b4bd
000003f0: 5401 91bd e738 2cbc af2f 58bd c7d4 4fbd
-0.030608546 0.0016115956 0.012111282 -0.032748263 -0.05578041 -0.03381283 -0.042093024 -0.027995095
0.022428978 0.0075122067 0.015474491 0.04074946 -0.012437098 -0.058557704 0.082464814 0.0046977843
0.018257705 0.021816315 0.059977073 0.06439795 -0.028000973 0.08610891 0.076434255 -0.025632584
-0.042144682 -0.02277537 0.066660985 0.05727149 0.0029441833 0.08131177 -0.024172911 -0.011485765
-0.043884702 -0.05029752 -0.026468324 0.06565803 0.06550626 0.044684663 0.041094374 0.016275622
-0.01469292 0.07813791 0.020625874 -0.055660628 0.090299904 0.0834595 -0.037754748 0.028993404
-0.07590259 -0.080225185 0.017573312 0.039124984 0.0150460275 0.032024212 -0.00647365 -0.05782656
0.0729391 0.05095812 0.0015375025 0.009559048 -0.07622259 0.08294018 0.051836107 0.043872375
-0.04859157 0.044071596 -0.07443893 0.053734552 -0.030135201 -0.04144559 -0.08188711 0.02806513
0.0032718834 0.03060977 0.02932893 0.077686906 -0.043161992 -0.021572499 0.071072325 -0.0481391
-0.044858627 0.038087975 -0.06299422 0.078500666 -0.058672056 0.055421844 0.02946101 -0.07129203
-0.0004611582 0.004254139 0.045626834 0.064978175 -0.05469004 -0.04357476 -0.012929689 0.08633465
-0.07665003 -0.08373934 0.0798625 0.052423384 0.005979214 -0.08420804 0.04075318 0.020062339
-0.040864922 -0.062987536 -0.018628737 0.02473379 -0.064618684 -0.083209366 -0.0006817584 -0.04098175
0.06728584 -0.06440274 0.042708006 -0.047764685 -0.07609843 -0.08769594 -0.076396175 -0.031737123
-0.0737334 0.05074905 0.07953922 -0.032803588 0.03870439 0.011245767 -0.07450338 -0.090382464
0.062188104 0.024668833 -0.008527115 -0.09695112 -0.037382454 -0.023202147 0.09591129 -0.03922899
0.020721372 0.047144115 -0.07976941 -0.03370891 0.06736579 0.08870775 0.054225646 0.035318222
-0.057967577 0.023007493 0.05437488 0.07012566 -0.03727253 -0.026930291 0.08959963 0.005414224
-0.03406429 -0.080227435 -0.041685022 -0.071519166 0.05709384 -0.020974899 -0.03874186 -0.03204649
-0.034994338 -0.047404114 -0.0031035626 -0.0068645906 -0.07297921 0.015912892 0.073527746 -0.050184973
-0.026912168 0.042506352 -0.018660393 -0.025092892 0.029471878 -0.055941682 0.015729824 0.06568823
-0.036668606 0.09119076 -0.026815392 -0.03618693 -0.037417546 -0.017929258 0.011157534 -0.046480782
-0.020596279 0.033533465 -0.07113122 -0.03391652 -0.053392455 0.014175645 0.016697295 0.010716298
0.058387607 -0.071210876 0.020385267 -0.07553948 0.032219943 0.025095524 0.05411265 0.041120514
0.08259265 0.05799213 -0.01793411 -0.079036936 -0.044348948 0.047478743 0.033461545 0.018705197
0.05248209 0.04400358 -0.015165949 0.07208592 -0.07002331 -0.07390812 -0.0335471 -0.021108283
-0.0035726374 -0.009387777 0.061850693 0.009253636 0.028342107 0.029305447 0.07260984 -0.042786706
0.010855036 0.033819932 0.055611152 -0.08808248 0.05197805 -0.017402489 0.037954457 0.055889707
-0.01692617 -0.052737024 -0.065227374 0.02456783 0.07604583 0.04257255 0.03225964 0.033917014
0.089553185 -0.05812104 0.028736971 0.032608837 0.022376174 -0.08949631 -0.06509307 0.04167788
-0.06922453 0.051524796 0.0030894284 -0.088226594 -0.070803314 -0.010511613 -0.05277985 -0.05074003

lstm1.weight_hh_l1 f4 [512, 128]
00000000: c600 adbd fc6f 96bd 415a a3bd 8939 9dbd
00000010: a54a 23bd 1dd2 753d 8ad3 923d 8ea4 983c
00000020: 7f10 1ebb 9ace 1d3d f861 10bd 6268 123d
00000030: b0e4 6bbd cd71 973d 9d97 ae3d 9056 df3c
00000040: 8d71 adbd 758f 6d3d 73a7 9cbd 0428 db3c
00000050: faea 22bd 116d 2bbc 9a24 a53d 0f1c 8fbd
00000060: 6599 963d e775 a83c 55aa fa3c da16 543d
00000070: a653 b1bd c2b0 573c 7efc cfbb 9db5 883d
00000080: 8de9 453d 73a0 fb3c dcdf afbd 8b2b 153d
00000090: 3d79 cfbc 0c0a 96bd bcde 3cbd f5e2 883c
000000a0: 773e 1b3d 37b7 4e3d bc5e 5bbd e62b 6abd
000000b0: f5f4 6abd aa0b 1b3b 8359 b23d 9202 873d
000000c0: 5913 a9bb 7112 593d 24d0 ab3d c6b2 efbc
000000d0: 689d 8b3d ccff 923d 17b4 3db9 31e4 053d
000000e0: 8523 883d c0b8 cabc 20e8 8dbd a57d 423d
000000f0: 76e1 083d c1f5 433d 1a39 6b3d 763e 013d
00000100: 19c6 98bd 57ae 813d 7046 ee3b 93a0 203d
00000110: 2f87 323d ca85 aeb9 4b63 adbd ad18 eebb
00000120: 8e0a 143d efeb 03bb 3f26 9bbd 2c4c 63bd
00000130: 1e96 03bd 3520 8a3d f1c8 aebd 7ad1 92bd
00000140: 7a10 3dbd 6ff0 6a3d 0f71 303c e13a 2bbd
00000150: f7b3 78bd 55df a5bc 4f5f bfbd 2b46 783d
00000160: 14ae a63d 0742 543d 804e 453d 57f4 ac3c
00000170: 4f5c 4dbc 2270 88bd b179 093d 7037 07bd
00000180: e210 0e3d 8a3f 1fbd f1cd 23bd 98e4 c3bc
00000190: 139d 053d c379 9cbd 658d 083d 3e92 56bd
000001a0: b294 85bd 2e81 a2bd 7e59 96bd 9418 b4bd
000001b0: e2e4 003d ad4d 94bc 9704 a2bc 75c4 9d3c
000001c0: c61a 92bd dead b4bd 2207 473d c851 5b3d
000001d0: d756 a83d d612 5cbd acb3 6e3d db48 b73b
000001e0: 82c8 8abc 6a65 47bc 1a5d 9a3d 448e d539
000001f0: 9660 9ebd 214e 85bc dbf3 6fbd a2b9 813c
00000200: 7709 903a a1d3 0dbd 127a 223d 5afb 63bd
00000210: 2169 963a f5f0 993d 2066 10bc c1f0 773c
00000220: ba05 88bd 0d7e 033d f9a5 2c3d ef22 96bd
00000230: c24d b3bc 751b b8bd 26a8 67bd 6e7b 843d
00000240: 67d8 a1bb adae 293c 85d6 a13d 2dd4 613c
00000250: 1204 123d fb88 713d 9d3e 81bd 338d ae3d
00000260: c7dd 9c3c e47f 323d 5a1c 323b a98a e3ba
00000270: a376 923c dfb9 35bd 1af8 4b3d 24e6 6a3c
00000280: 0d61 9d3d f37f 4e3c 75f4 573d c7b6 edbc
00000290: 35f8 a43d b36d 1e3c 9c2e febc 0370 03bd
000002a0: 0b4d 223d f9c5 81bd 7926 a53d 550b 5bbd
000002b0: e2a0 b1bd e1ae 133d 442a 433d ac78 ddbb
000002c0: 0047 e6bc 5cc6 743d 42cc 1f3d 112f 5cbd
000002d0: 667c 79bc e631 b33d 8301 c23d 24f9 843d
000002e0: d0fa 51bc 6820 0d3c ace6 c7bc 9418 8abd
000002f0: ee01 28bd 7f1e 623d 37e8 b0bd e754 d7bb
00000300: 7450 353c 5dc9 7c3d bf2f b9bd 2ad2 a8bd
00000310: d869 9f3d 4867 36bd 6d54 88bd d937 a33c
00000320: 69df 913d e121 b13d 4e40 94bd eff9 12bd
00000330: 5c87 1ebc 0fe5 9dbd a759 a13d ec56 59bc
00000340: 57ed 9dbc c692 f3bc ba28 97bc 9135 6cbc
00000350: d58c 01bd 1cf2 6bbd c1d7 32ba e453 a73d
00000360: d008 c23b edc9 8f3d e63d 0f3d 6269 873d
00000370: fb3b bd3d e08d 59bd 86ac 573c 7ae4 9d3d
00000380: 3c71 ff3b f801 a93c 6d59 943d 3068 283d
00000390: 4462 39bd bf94 77bd 71ec 93bd fa37 813d
000003a0: 60e5 4dbc fae0 89bd dc9d b4bc 2204 6bbd
000003b0: 3138 98bd fd58 973d 438a 52bd 1f57 04bb
000003c0: 8165 da3a 041d 7a3d 0a9c bcbb 8617 84bd
000003d0: a7a8 bfbc b634 d93c 9711 313d 21a8 ba3d
000003e0: a734 763d 8ae0 0f3d 050b bebd d964 acbd
000003f0: 9716 a33c 6900 3dbd 4e36 7e3d b85e a03d
-0.08447413 -0.07345578 -0.07976199 -0.076769896 -0.03986611 0.060014833 0.07169254 0.018633153
-0.002411872 0.03852711 -0.03524968 0.03574408 -0.05759114 0.07394753 0.08525012 0.027262956
-0.08468924 0.05799814 -0.07649126 0.02675248 -0.039774872 -0.010463015 0.08063622 -0.069877736
0.073534764 0.020564033 0.030598799 0.051779605 -0.08658533 0.013164701 -0.006347238 0.06675265
0.048318435 0.030716157 -0.0858762 0.03641848 -0.025326366 -0.07326135 -0.046110854 0.016709784
0.037901368 0.050467696 -0.053557143 -0.05717077 -0.057362515 0.0023658075 0.08708479 0.06592287
-0.005159777 0.052996103 0.08389309 -0.02926005 0.06817132 0.07177696 -0.00018091533 0.032688323
0.066474 -0.024746299 -0.0692904 0.047483105 0.03341814 0.04784179 0.057427503 0.031553708
-0.07459659 0.06332081 0.0072715804 0.039215636 0.043585952 -0.00033287547 -0.08466204 -0.007266125
0.03614288 -0.002012964 -0.07575654 -0.055492565 -0.032125585 0.06744424 -0.0853442 -0.07168861
-0.04615829 0.0573582 0.010769143 -0.0418042 -0.060718503 -0.020248095 -0.093443505 0.060613792
0.081386715 0.05182078 0.048170567 0.021112604 -0.012534215 -0.06662013 0.03356332 -0.033011854
0.03468407 -0.038878955 -0.039991323 -0.023912713 0.0326205 -0.07640412 0.03333797 -0.05238556
-0.06522502 -0.07934795 -0.07341288 -0.087937504 0.03146828 -0.018103445 -0.01977758 0.019258717
-0.07134013 -0.08822225 0.048590787 0.05354479 0.082196884 -0.0537289 0.058276817 0.005593402
-0.016941313 -0.012170175 0.07537289 0.00040732522 -0.07733266 -0.016272606 -0.058582168 0.015835587
0.0010989149 -0.034625653 0.039667197 -0.05565963 0.0011475423 0.07516662 -0.008813411 0.015133084
-0.06641717 0.032102633 0.04215047 -0.07330882 -0.021887664 -0.08989612 -0.056556843 0.06468855
-0.0049391272 0.010356587 0.079022445 0.013783497 0.035648413 0.058968525 -0.06310771 0.08523025
0.01914872 0.043578997 0.0027177543 -0.001736005 0.017878836 -0.044366714 0.049797155 0.014337096
0.076845266 0.012603748 0.052723367 -0.02901782 0.08055154 0.009669709 -0.031028084 -0.032089245
0.039624255 -0.063365884 0.08063979 -0.053477604 -0.08673264 0.03605545 0.04764773 -0.00675877
-0.028110027 0.059759483 0.039013155 -0.053755824 -0.015227413 0.08749752 0.094729446 0.06492832
-0.012816146 0.008613683 -0.024401985 -0.06742969 -0.041017465 0.055204865 -0.086380415 -0.0065714004
0.011066545 0.061715472 -0.0904231 -0.082432106 0.0778386 -0.04453209 -0.06656728 0.019924091
0.0712269 0.0864904 -0.07238828 -0.035882886 -0.009675827 -0.07709705 0.07878428 -0.013265353
-0.019278212 -0.029733073 -0.018452037 -0.014417068 -0.03162845 -0.05760394 -0.0006822311 0.08170298
0.0059214607 0.07020936 0.03497114 0.06611897 0.09239956 -0.05311382 0.013163691 0.07709594
0.007795481 0.020630822 0.07243619 0.041114986 -0.04525973 -0.06044459 -0.07222832 0.06309505
-0.012566894 -0.06732364 -0.02204793 -0.05737699 -0.07432593 0.0739002 -0.051401388 -0.002019353
0.0016662331 0.061062828 -0.005755906 -0.06449799 -0.02339585 0.026514392 0.043229666 0.09114099
0.060108807 0.035126247 -0.092794456 -0.08417673 0.019908233 -0.04614297 0.062063508 0.07830566

lstm1.bias_ih_l1 f4 [512]
00000000: ce9e 7b3d 6e24 f3bc 6dc6 973d f769 cb3c
00000010: f21a 46bd c2c0 be3c 737e 1c3d 02d2 933d
00000020: d3d3 6abb e573 b03d 9a3c c9bc f03b 69bd
00000030: 5b03 873d 1b09 8ebd 5a20 88bd 1966 2e3d
00000040: fdfc 68bd 5b25 963d 22ce 1dbd 690e 9e3d
00000050: a855 54bd d27d a03d af3b e63c 0ca8 a43d
00000060: 77d7 55bd deb1 54bb 2620 96bd 83b4 8b3d
00000070: d089 103d 88a4 52bd 49f1 2fbd d551 6ebd
00000080: 9434 933d e7f0 41bd 6388 10bd 72c2 883d
00000090: 7ef0 393b 2227 7abd 9963 913d d542 5fbd
000000a0: 2490 edbc 557b 77bd c0ae bd3d 24fc 913d
000000b0: c2fb 8d3d e893 a03d edc9 6dbc 9938 283d
000000c0: 16d0 e0bc 74e8 aa3d 7287 373d 9678 36bd
000000d0: 6b15 7fbd e058 59bd 21a0 8e3d a46a 52bd
000000e0: e68f b1bd f2ff f63c 5f47 41bd 2a9e 483d
000000f0: 5e90 a5bd 05cf 933d a552 93bd 356f c03d
00000100: a5fd 8c3d bbc6 f5bb 6fc0 a63c 540c 4abd
00000110: fecf 84bd 190d 8cbd 6a5e bb3d 121e 87bd
00000120: 55db 863d a0eb e33c 3a06 983d 2457 513d
00000130: 275f bdbc 280f 41bb 59e8 41bd df4c 0a3d
00000140: f5ae 793b 328d 8ebd ecc3 143d 2a32 443c
00000150: 3e7d 8ebd 2f91 403d 0f85 353b 017c 24bd
00000160: 06cb c83a aabb 8ebd 4f02 293d e687 77bc
00000170: 5656 0d3d 393d e1bc de67 aabc 0608 c43c
00000180: 9d51 1bbd 31cd 9cbd acc2 b93d 2771 0a3c
00000190: e4c5 11bd 35a4 923d 8cfd 03bd 2147 123c
000001a0: d2c1 aabd 6cbd 1e3d 4c36 80bd cc48 103d
000001b0: 9e17 96bd 5c75 1fbd 94c4 8bbc 46e6 17bd
000001c0: aaa7 a83d bc7f 863d b7ff d2bc 01cc 90bc
000001d0: 2ff5 8a3d 372e 60bd 385d 50bc 4365 c03c
000001e0: 783b 8ebd 259e 4bbc 5a93 7e3d 2b8a 9e3d
000001f0: f11a 90bd 453e 523c b5f3 53bc bb76 083c
00000200: 68d3 b03d e5c0 713d 30a4 133c fa84 36bd
00000210: afd1 8cbd 4462 963d 1559 983b d88f 213d
00000220: a6f8 b1bc 3fe3 53bd 6e8c 21bc 0179 863d
00000230: 4789 18bc be61 6dbd 9fd5 00bd e0a1 41bd
00000240: bf50 833c ea41 983d 0c3c 923d cd55 1cbd
00000250: 1282 c53d bcbd f6bc ffba 493d 9897 ff3c
00000260: 8d60 4f3d 479e 99bc a9a1 3b3d 07c0 7b3d
00000270: 6aa4 7d3c ac61 083c 14b9 54bd c769 90bd
00000280: d465 82bd 5de9 1fbd eb7f 2a3d 6f4c 843d
00000290: 2ce6 4ebd f4f7 9f3d 7d32 5cbd c443 cf3b
000002a0: 49cd b63b 88d4 c23d 4168 76bd e371 8fbd
000002b0: 93cc 2ebd 34df 87bd c436 5fbd 18a8 5bbd
000002c0: 0865 f5bc e450 f4bc f961 d3bc f3d6 fdbc
000002d0: 57b7 743d 75d7 8dbc 2e9e 223d 732e 0fbd
000002e0: 923a 4c3d 03cf 15bd fedc a23c efd4 d13c
000002f0: 5c30 353c 3e44 5bbb f54a 9bbb 225c 3bbd
00000300: 336e 6f3c 6724 873d 6e8e 963d fb7d 86bc
00000310: 64fe 72bd d484 eabb 910b 8bbd 6166 3abd
00000320: c14e 8cbc 57e3 88bd 5918 7c3c 36f0 e9bb
00000330: 8628 fd3c b804 2a3d 64c0 c2bb 9cdb 81bc
00000340: abe2 78bd a17f 783d efc6 ac3c 1183 a9bc
00000350: 1060 0b3d 307f 19bd 3d0b 68bd f45d 27bc
00000360: d152 8ebd 02d1 aa3d f104 3f3d 88c1 813d
00000370: 2c0f b93d fd9b fabc d92a 0e3c ea87 773c
00000380: efdd 59bc 0d73 a6bd 2277 5bbd 5e41 9a3c
00000390: b294 9bbd f577 763c 1874 92bd 14f7 91bd
000003a0: b38d abbd b59e bf3d 9d13 6fbd 31d7 953d
000003b0: 32c8 853c e532 743b 14f7 0b3d 9572 8338
000003c0: 5451 133d 1cb3 b53d f4c1 883d 7b8a ddbc
000003d0: 375b 753d c8fa 8f3d 8180 443c f7a8 1ebd
000003e0: ec26 0ebd 314e 853d cd44 93bd 2d46 39bd
000003f0: 471b 783c 0866 863d 49b3 9abd 262f 51bd
0.061430745 -0.029680457 0.074108936 0.024830801 -0.04836554 0.023285273 0.03820653 0.0721779
-0.0035831823 0.08615855 -0.02456503 -0.056941926 0.06592437 -0.069353305 -0.066467956 0.042577837
-0.056881893 0.07331344 -0.03852666 0.07717592 -0.0518395 0.07836498 0.028104631 0.08039865
-0.052207436 -0.003245465 -0.073303506 0.06821539 0.03528768 -0.05142644 -0.042954717 -0.05818351
0.07187763 -0.047348883 -0.03528632 0.066777125 0.0028372104 -0.061072476 0.07099075 -0.054507095
-0.028999396 -0.060420353 0.092618465 0.0712817 0.069327846 0.07840711 -0.014513475 0.0410696
-0.027442973 0.08345118 0.044806905 -0.044548593 -0.062276285 -0.053063273 0.06964136 -0.05137123
-0.086700246 0.030151341 -0.047187205 0.048978962 -0.080841765 0.0721722 -0.071934976 0.09396211
0.06884316 -0.007500497 0.020355431 -0.049328163 -0.06484984 -0.06838436 0.091488674 -0.06597532
0.06584803 0.027822316 0.074230626 0.051108494 -0.023116661 -0.0029458497 -0.047340725 0.033764716
0.0038098667 -0.069605246 0.03631966 0.011974851 -0.06957482 0.047013458 0.0027697717 -0.04015732
0.0015319295 -0.06969388 0.041261967 -0.015108084 0.034506164 -0.027495014 -0.02080148 0.023929607
-0.03791963 -0.07656325 0.09070334 0.008449829 -0.035589114 0.07160226 -0.032224223 0.008928091
-0.083377495 0.038754866 -0.06260356 0.035225675 -0.07328723 -0.038930282 -0.01706151 -0.03708484
0.082351044 0.06567332 -0.0257567 -0.017675402 0.06785046 -0.054731574 -0.012717538 0.023485785
-0.069449365 -0.012427841 0.062152244 0.07741197 -0.07036389 0.012832229 -0.012936522 0.008329089
0.086340725 0.05902185 0.009011313 -0.04456041 -0.068759315 0.073429614 0.0046492913 0.03944382
-0.02172501 -0.05173039 -0.009860141 0.065660484 -0.009310073 -0.057954542 -0.031453725 -0.047273517
0.016029714 0.07434447 0.07140359 -0.038167764 0.096439496 -0.03011977 0.0492506 0.031200215
0.050629187 -0.01875223 0.045808468 0.06146243 0.015481094 0.008324068 -0.051934317 -0.070514254
-0.063670784 -0.039040912 0.0416259 0.06459891 -0.050512478 0.07810965 -0.053759087 0.006325217
0.005578671 0.09513193 -0.060158018 -0.07004144 -0.042675566 -0.066343695 -0.054495588 -0.053627104
-0.029955402 -0.029823728 -0.025803553 -0.030986285 0.05974516 -0.017314652 0.039701633 -0.034956407
0.049860545 -0.036574375 0.019880768 0.02561423 0.011058893 -0.0033457424 -0.00473916 -0.04574216
0.014613676 0.0659874 0.07351385 -0.016417494 -0.059324637 -0.0071569476 -0.067893155 -0.045507792
-0.017127397 -0.06683987 0.015386664 -0.007139231 0.030903112 0.041508406 -0.005943345 -0.015851788
-0.060763042 0.06066859 0.021090953 -0.02069238 0.03402716 -0.03747481 -0.056651343 -0.010215271
-0.0694939 0.08340646 0.046635572 0.06335741 0.09036097 -0.03059196 0.008677208 0.015108088
-0.013297542 -0.08127413 -0.05358041 0.018829998 -0.07596721 0.015043248 -0.071510494 -0.071272045
-0.08376636 0.09356443 -0.058368314 0.07316435 0.016330812 0.003726178 0.03417118 6.267909e-05
0.035966232 0.08872053 0.066776186 -0.027043572 0.059901442 0.070302546 0.011993528 -0.038735356
-0.034705088 0.065090545 -0.07190857 -0.04523294 0.015143222 0.0656243 -0.07553727 -0.051070355
